<net name="person-vehicle-bike-detection-crossroad-1016" version="10">
<layers>
<layer id="0" name="input.1" type="Parameter" version="opset1">
<data element_type="f16" shape="1,3,512,512"/>
<output>
<port id="0" precision="FP16">
<dim>1</dim>
<dim>3</dim>
<dim>512</dim>
<dim>512</dim>
</port>
</output>
</layer>
<layer id="1" name="23552359_const" type="Const" version="opset1">
<data element_type="f16" offset="0" shape="" size="2"/>
<output>
<port id="1" precision="FP16"/>
</output>
</layer>
<layer id="2" name="23562360_const" type="Const" version="opset1">
<data element_type="f16" offset="2" shape="" size="2"/>
<output>
<port id="1" precision="FP16"/>
</output>
</layer>
<layer id="3" name="23572361_const" type="Const" version="opset1">
<data element_type="f16" offset="0" shape="" size="2"/>
<output>
<port id="1" precision="FP16"/>
</output>
</layer>
<layer id="4" name="23582362_const" type="Const" version="opset1">
<data element_type="f16" offset="2" shape="" size="2"/>
<output>
<port id="1" precision="FP16"/>
</output>
</layer>
<layer id="5" name="Mul_/fq_input_0" type="FakeQuantize" version="opset1">
<data levels="256"/>
<input>
<port id="0">
<dim>1</dim>
<dim>3</dim>
<dim>512</dim>
<dim>512</dim>
</port>
<port id="1"/>
<port id="2"/>
<port id="3"/>
<port id="4"/>
</input>
<output>
<port id="5" precision="FP16">
<dim>1</dim>
<dim>3</dim>
<dim>512</dim>
<dim>512</dim>
</port>
</output>
</layer>
<layer id="6" name="Mul_/fq_input_1/Convert_to_float/Cast_06563_const" type="Const" version="opset1">
<data element_type="u8" offset="4" shape="1,1,1,1" size="1"/>
<output>
<port id="1" precision="U8">
<dim>1</dim>
<dim>1</dim>
<dim>1</dim>
<dim>1</dim>
</port>
</output>
</layer>
<layer id="7" name="Mul_/fq_input_1/Convert_to_float" type="Convert" version="opset1">
<data destination_type="f16"/>
<input>
<port id="0">
<dim>1</dim>
<dim>1</dim>
<dim>1</dim>
<dim>1</dim>
</port>
</input>
<output>
<port id="1" precision="FP16">
<dim>1</dim>
<dim>1</dim>
<dim>1</dim>
<dim>1</dim>
</port>
</output>
</layer>
<layer id="8" name="Mul_/fq_input_1/Copy/out_low5533_const" type="Const" version="opset1">
<data element_type="f16" offset="0" shape="1" size="2"/>
<output>
<port id="1" precision="FP16">
<dim>1</dim>
</port>
</output>
</layer>
<layer id="9" name="Mul_/fq_input_1/Copy/out_high5534_const" type="Const" version="opset1">
<data element_type="f16" offset="5" shape="1" size="2"/>
<output>
<port id="1" precision="FP16">
<dim>1</dim>
</port>
</output>
</layer>
<layer id="10" name="23672371_const" type="Const" version="opset1">
<data element_type="f16" offset="7" shape="1,1,1,1" size="2"/>
<output>
<port id="1" precision="FP16">
<dim>1</dim>
<dim>1</dim>
<dim>1</dim>
<dim>1</dim>
</port>
</output>
</layer>
<layer id="11" name="23682372_const" type="Const" version="opset1">
<data element_type="f16" offset="9" shape="1,1,1,1" size="2"/>
<output>
<port id="1" precision="FP16">
<dim>1</dim>
<dim>1</dim>
<dim>1</dim>
<dim>1</dim>
</port>
</output>
</layer>
<layer id="12" name="Mul_/fq_input_1" type="FakeQuantize" version="opset1">
<data levels="255"/>
<input>
<port id="0">
<dim>1</dim>
<dim>1</dim>
<dim>1</dim>
<dim>1</dim>
</port>
<port id="1">
<dim>1</dim>
</port>
<port id="2">
<dim>1</dim>
</port>
<port id="3">
<dim>1</dim>
<dim>1</dim>
<dim>1</dim>
<dim>1</dim>
</port>
<port id="4">
<dim>1</dim>
<dim>1</dim>
<dim>1</dim>
<dim>1</dim>
</port>
</input>
<output>
<port id="5" precision="FP16">
<dim>1</dim>
<dim>1</dim>
<dim>1</dim>
<dim>1</dim>
</port>
</output>
</layer>
<layer id="13" name="Mul_" type="Multiply" version="opset1">
<input>
<port id="0">
<dim>1</dim>
<dim>3</dim>
<dim>512</dim>
<dim>512</dim>
</port>
<port id="1">
<dim>1</dim>
<dim>1</dim>
<dim>1</dim>
<dim>1</dim>
</port>
</input>
<output>
<port id="2" precision="FP16">
<dim>1</dim>
<dim>3</dim>
<dim>512</dim>
<dim>512</dim>
</port>
</output>
</layer>
<layer id="14" name="26352639_const" type="Const" version="opset1">
<data element_type="f16" offset="0" shape="" size="2"/>
<output>
<port id="1" precision="FP16"/>
</output>
</layer>
<layer id="15" name="26362640_const" type="Const" version="opset1">
<data element_type="f16" offset="11" shape="" size="2"/>
<output>
<port id="1" precision="FP16"/>
</output>
</layer>
<layer id="16" name="26372641_const" type="Const" version="opset1">
<data element_type="f16" offset="0" shape="" size="2"/>
<output>
<port id="1" precision="FP16"/>
</output>
</layer>
<layer id="17" name="26382642_const" type="Const" version="opset1">
<data element_type="f16" offset="11" shape="" size="2"/>
<output>
<port id="1" precision="FP16"/>
</output>
</layer>
<layer id="18" name="391/mean/Fused_Mul_/fq_input_0" type="FakeQuantize" version="opset1">
<data levels="256"/>
<input>
<port id="0">
<dim>1</dim>
<dim>3</dim>
<dim>512</dim>
<dim>512</dim>
</port>
<port id="1"/>
<port id="2"/>
<port id="3"/>
<port id="4"/>
</input>
<output>
<port id="5" precision="FP16">
<dim>1</dim>
<dim>3</dim>
<dim>512</dim>
<dim>512</dim>
</port>
</output>
</layer>
<layer id="19" name="data_mul_1150711511/copy_const410_const" type="Const" version="opset1">
<data element_type="f16" offset="13" shape="1,3,1,1" size="6"/>
<output>
<port id="1" precision="FP16">
<dim>1</dim>
<dim>3</dim>
<dim>1</dim>
<dim>1</dim>
</port>
</output>
</layer>
<layer id="20" name="391/mean/Fused_Mul_" type="Multiply" version="opset1">
<input>
<port id="0">
<dim>1</dim>
<dim>3</dim>
<dim>512</dim>
<dim>512</dim>
</port>
<port id="1">
<dim>1</dim>
<dim>3</dim>
<dim>1</dim>
<dim>1</dim>
</port>
</input>
<output>
<port id="2" precision="FP16">
<dim>1</dim>
<dim>3</dim>
<dim>512</dim>
<dim>512</dim>
</port>
</output>
</layer>
<layer id="21" name="data_add_11513/copy_const412_const" type="Const" version="opset1">
<data element_type="f16" offset="19" shape="1,3,1,1" size="6"/>
<output>
<port id="1" precision="FP16">
<dim>1</dim>
<dim>3</dim>
<dim>1</dim>
<dim>1</dim>
</port>
</output>
</layer>
<layer id="22" name="391/variance/Fused_Add_" type="Add" version="opset1">
<input>
<port id="0">
<dim>1</dim>
<dim>3</dim>
<dim>512</dim>
<dim>512</dim>
</port>
<port id="1">
<dim>1</dim>
<dim>3</dim>
<dim>1</dim>
<dim>1</dim>
</port>
</input>
<output>
<port id="2" precision="FP16">
<dim>1</dim>
<dim>3</dim>
<dim>512</dim>
<dim>512</dim>
</port>
</output>
</layer>
<layer id="23" name="14551459_const" type="Const" version="opset1">
<data element_type="f16" offset="25" shape="" size="2"/>
<output>
<port id="1" precision="FP16"/>
</output>
</layer>
<layer id="24" name="14561460_const" type="Const" version="opset1">
<data element_type="f16" offset="27" shape="" size="2"/>
<output>
<port id="1" precision="FP16"/>
</output>
</layer>
<layer id="25" name="14571461_const" type="Const" version="opset1">
<data element_type="f16" offset="25" shape="" size="2"/>
<output>
<port id="1" precision="FP16"/>
</output>
</layer>
<layer id="26" name="14581462_const" type="Const" version="opset1">
<data element_type="f16" offset="27" shape="" size="2"/>
<output>
<port id="1" precision="FP16"/>
</output>
</layer>
<layer id="27" name="392/fq_input_0" type="FakeQuantize" version="opset1">
<data levels="256"/>
<input>
<port id="0">
<dim>1</dim>
<dim>3</dim>
<dim>512</dim>
<dim>512</dim>
</port>
<port id="1"/>
<port id="2"/>
<port id="3"/>
<port id="4"/>
</input>
<output>
<port id="5" precision="FP16">
<dim>1</dim>
<dim>3</dim>
<dim>512</dim>
<dim>512</dim>
</port>
</output>
</layer>
<layer id="28" name="392/fq_weights_1/Convert_to_float/Cast_06581_const" type="Const" version="opset1">
<data element_type="u8" offset="29" shape="32,3,3,3" size="864"/>
<output>
<port id="1" precision="U8">
<dim>32</dim>
<dim>3</dim>
<dim>3</dim>
<dim>3</dim>
</port>
</output>
</layer>
<layer id="29" name="392/fq_weights_1/Convert_to_float" type="Convert" version="opset1">
<data destination_type="f16"/>
<input>
<port id="0">
<dim>32</dim>
<dim>3</dim>
<dim>3</dim>
<dim>3</dim>
</port>
</input>
<output>
<port id="1" precision="FP16">
<dim>32</dim>
<dim>3</dim>
<dim>3</dim>
<dim>3</dim>
</port>
</output>
</layer>
<layer id="30" name="392/fq_weights_1/Copy/out_low5389_const" type="Const" version="opset1">
<data element_type="f16" offset="0" shape="1" size="2"/>
<output>
<port id="1" precision="FP16">
<dim>1</dim>
</port>
</output>
</layer>
<layer id="31" name="392/fq_weights_1/Copy/out_high5390_const" type="Const" version="opset1">
<data element_type="f16" offset="5" shape="1" size="2"/>
<output>
<port id="1" precision="FP16">
<dim>1</dim>
</port>
</output>
</layer>
<layer id="32" name="14671471_const" type="Const" version="opset1">
<data element_type="f16" offset="893" shape="32,1,1,1" size="64"/>
<output>
<port id="1" precision="FP16">
<dim>32</dim>
<dim>1</dim>
<dim>1</dim>
<dim>1</dim>
</port>
</output>
</layer>
<layer id="33" name="14681472_const" type="Const" version="opset1">
<data element_type="f16" offset="957" shape="32,1,1,1" size="64"/>
<output>
<port id="1" precision="FP16">
<dim>32</dim>
<dim>1</dim>
<dim>1</dim>
<dim>1</dim>
</port>
</output>
</layer>
<layer id="34" name="392/fq_weights_1" type="FakeQuantize" version="opset1">
<data levels="255"/>
<input>
<port id="0">
<dim>32</dim>
<dim>3</dim>
<dim>3</dim>
<dim>3</dim>
</port>
<port id="1">
<dim>1</dim>
</port>
<port id="2">
<dim>1</dim>
</port>
<port id="3">
<dim>32</dim>
<dim>1</dim>
<dim>1</dim>
<dim>1</dim>
</port>
<port id="4">
<dim>32</dim>
<dim>1</dim>
<dim>1</dim>
<dim>1</dim>
</port>
</input>
<output>
<port id="5" precision="FP16">
<dim>32</dim>
<dim>3</dim>
<dim>3</dim>
<dim>3</dim>
</port>
</output>
</layer>
<layer id="35" name="392" type="Convolution" version="opset1">
<data dilations="1,1" output_padding="0,0" pads_begin="1,1" pads_end="1,1" strides="2,2"/>
<input>
<port id="0">
<dim>1</dim>
<dim>3</dim>
<dim>512</dim>
<dim>512</dim>
</port>
<port id="1">
<dim>32</dim>
<dim>3</dim>
<dim>3</dim>
<dim>3</dim>
</port>
</input>
<output>
<port id="2" precision="FP16">
<dim>1</dim>
<dim>32</dim>
<dim>256</dim>
<dim>256</dim>
</port>
</output>
</layer>
<layer id="36" name="data_add_1151611521/copy_const416_const" type="Const" version="opset1">
<data element_type="f16" offset="1021" shape="1,32,1,1" size="64"/>
<output>
<port id="1" precision="FP16">
<dim>1</dim>
<dim>32</dim>
<dim>1</dim>
<dim>1</dim>
</port>
</output>
</layer>
<layer id="37" name="393/variance/Fused_Add_" type="Add" version="opset1">
<input>
<port id="0">
<dim>1</dim>
<dim>32</dim>
<dim>256</dim>
<dim>256</dim>
</port>
<port id="1">
<dim>1</dim>
<dim>32</dim>
<dim>1</dim>
<dim>1</dim>
</port>
</input>
<output>
<port id="2" precision="FP16">
<dim>1</dim>
<dim>32</dim>
<dim>256</dim>
<dim>256</dim>
</port>
</output>
</layer>
<layer id="38" name="394" type="ReLU" version="opset1">
<input>
<port id="0">
<dim>1</dim>
<dim>32</dim>
<dim>256</dim>
<dim>256</dim>
</port>
</input>
<output>
<port id="1" precision="FP16">
<dim>1</dim>
<dim>32</dim>
<dim>256</dim>
<dim>256</dim>
</port>
</output>
</layer>
<layer id="39" name="15351539_const" type="Const" version="opset1">
<data element_type="f16" offset="1085" shape="1,32,1,1" size="64"/>
<output>
<port id="1" precision="FP16">
<dim>1</dim>
<dim>32</dim>
<dim>1</dim>
<dim>1</dim>
</port>
</output>
</layer>
<layer id="40" name="15361540_const" type="Const" version="opset1">
<data element_type="f16" offset="1149" shape="1,32,1,1" size="64"/>
<output>
<port id="1" precision="FP16">
<dim>1</dim>
<dim>32</dim>
<dim>1</dim>
<dim>1</dim>
</port>
</output>
</layer>
<layer id="41" name="15371541_const" type="Const" version="opset1">
<data element_type="f16" offset="1085" shape="1,32,1,1" size="64"/>
<output>
<port id="1" precision="FP16">
<dim>1</dim>
<dim>32</dim>
<dim>1</dim>
<dim>1</dim>
</port>
</output>
</layer>
<layer id="42" name="15381542_const" type="Const" version="opset1">
<data element_type="f16" offset="1149" shape="1,32,1,1" size="64"/>
<output>
<port id="1" precision="FP16">
<dim>1</dim>
<dim>32</dim>
<dim>1</dim>
<dim>1</dim>
</port>
</output>
</layer>
<layer id="43" name="395/fq_input_0" type="FakeQuantize" version="opset1">
<data levels="256"/>
<input>
<port id="0">
<dim>1</dim>
<dim>32</dim>
<dim>256</dim>
<dim>256</dim>
</port>
<port id="1">
<dim>1</dim>
<dim>32</dim>
<dim>1</dim>
<dim>1</dim>
</port>
<port id="2">
<dim>1</dim>
<dim>32</dim>
<dim>1</dim>
<dim>1</dim>
</port>
<port id="3">
<dim>1</dim>
<dim>32</dim>
<dim>1</dim>
<dim>1</dim>
</port>
<port id="4">
<dim>1</dim>
<dim>32</dim>
<dim>1</dim>
<dim>1</dim>
</port>
</input>
<output>
<port id="5" precision="FP16">
<dim>1</dim>
<dim>32</dim>
<dim>256</dim>
<dim>256</dim>
</port>
</output>
</layer>
<layer id="44" name="395/fq_weights_1/Convert_to_float/Cast_06693_const" type="Const" version="opset1">
<data element_type="u8" offset="1213" shape="32,1,3,3" size="288"/>
<output>
<port id="1" precision="U8">
<dim>32</dim>
<dim>1</dim>
<dim>3</dim>
<dim>3</dim>
</port>
</output>
</layer>
<layer id="45" name="395/fq_weights_1/Convert_to_float" type="Convert" version="opset1">
<data destination_type="f16"/>
<input>
<port id="0">
<dim>32</dim>
<dim>1</dim>
<dim>3</dim>
<dim>3</dim>
</port>
</input>
<output>
<port id="1" precision="FP16">
<dim>32</dim>
<dim>1</dim>
<dim>3</dim>
<dim>3</dim>
</port>
</output>
</layer>
<layer id="46" name="395/fq_weights_1/Copy/out_low5405_const" type="Const" version="opset1">
<data element_type="f16" offset="0" shape="1" size="2"/>
<output>
<port id="1" precision="FP16">
<dim>1</dim>
</port>
</output>
</layer>
<layer id="47" name="395/fq_weights_1/Copy/out_high5406_const" type="Const" version="opset1">
<data element_type="f16" offset="5" shape="1" size="2"/>
<output>
<port id="1" precision="FP16">
<dim>1</dim>
</port>
</output>
</layer>
<layer id="48" name="15471551_const" type="Const" version="opset1">
<data element_type="f16" offset="1501" shape="32,1,1,1" size="64"/>
<output>
<port id="1" precision="FP16">
<dim>32</dim>
<dim>1</dim>
<dim>1</dim>
<dim>1</dim>
</port>
</output>
</layer>
<layer id="49" name="15481552_const" type="Const" version="opset1">
<data element_type="f16" offset="1565" shape="32,1,1,1" size="64"/>
<output>
<port id="1" precision="FP16">
<dim>32</dim>
<dim>1</dim>
<dim>1</dim>
<dim>1</dim>
</port>
</output>
</layer>
<layer id="50" name="395/fq_weights_1" type="FakeQuantize" version="opset1">
<data levels="255"/>
<input>
<port id="0">
<dim>32</dim>
<dim>1</dim>
<dim>3</dim>
<dim>3</dim>
</port>
<port id="1">
<dim>1</dim>
</port>
<port id="2">
<dim>1</dim>
</port>
<port id="3">
<dim>32</dim>
<dim>1</dim>
<dim>1</dim>
<dim>1</dim>
</port>
<port id="4">
<dim>32</dim>
<dim>1</dim>
<dim>1</dim>
<dim>1</dim>
</port>
</input>
<output>
<port id="5" precision="FP16">
<dim>32</dim>
<dim>1</dim>
<dim>3</dim>
<dim>3</dim>
</port>
</output>
</layer>
<layer id="51" name="7518/value7520_const" type="Const" version="opset1">
<data element_type="i64" offset="1629" shape="5" size="40"/>
<output>
<port id="1" precision="I64">
<dim>5</dim>
</port>
</output>
</layer>
<layer id="52" name="7518" type="Reshape" version="opset1">
<data special_zero="True"/>
<input>
<port id="0">
<dim>32</dim>
<dim>1</dim>
<dim>3</dim>
<dim>3</dim>
</port>
<port id="1">
<dim>5</dim>
</port>
</input>
<output>
<port id="2" precision="FP16">
<dim>32</dim>
<dim>1</dim>
<dim>1</dim>
<dim>3</dim>
<dim>3</dim>
</port>
</output>
</layer>
<layer id="53" name="395" type="GroupConvolution" version="opset1">
<data dilations="1,1" output_padding="0,0" pads_begin="1,1" pads_end="1,1" strides="1,1"/>
<input>
<port id="0">
<dim>1</dim>
<dim>32</dim>
<dim>256</dim>
<dim>256</dim>
</port>
<port id="1">
<dim>32</dim>
<dim>1</dim>
<dim>1</dim>
<dim>3</dim>
<dim>3</dim>
</port>
</input>
<output>
<port id="2" precision="FP16">
<dim>1</dim>
<dim>32</dim>
<dim>256</dim>
<dim>256</dim>
</port>
</output>
</layer>
<layer id="54" name="data_add_1152411529/copy_const421_const" type="Const" version="opset1">
<data element_type="f16" offset="1669" shape="1,32,1,1" size="64"/>
<output>
<port id="1" precision="FP16">
<dim>1</dim>
<dim>32</dim>
<dim>1</dim>
<dim>1</dim>
</port>
</output>
</layer>
<layer id="55" name="396/variance/Fused_Add_" type="Add" version="opset1">
<input>
<port id="0">
<dim>1</dim>
<dim>32</dim>
<dim>256</dim>
<dim>256</dim>
</port>
<port id="1">
<dim>1</dim>
<dim>32</dim>
<dim>1</dim>
<dim>1</dim>
</port>
</input>
<output>
<port id="2" precision="FP16">
<dim>1</dim>
<dim>32</dim>
<dim>256</dim>
<dim>256</dim>
</port>
</output>
</layer>
<layer id="56" name="397" type="ReLU" version="opset1">
<input>
<port id="0">
<dim>1</dim>
<dim>32</dim>
<dim>256</dim>
<dim>256</dim>
</port>
</input>
<output>
<port id="1" precision="FP16">
<dim>1</dim>
<dim>32</dim>
<dim>256</dim>
<dim>256</dim>
</port>
</output>
</layer>
<layer id="57" name="27452749_const" type="Const" version="opset1">
<data element_type="f16" offset="0" shape="" size="2"/>
<output>
<port id="1" precision="FP16"/>
</output>
</layer>
<layer id="58" name="27462750_const" type="Const" version="opset1">
<data element_type="f16" offset="1733" shape="" size="2"/>
<output>
<port id="1" precision="FP16"/>
</output>
</layer>
<layer id="59" name="27472751_const" type="Const" version="opset1">
<data element_type="f16" offset="0" shape="" size="2"/>
<output>
<port id="1" precision="FP16"/>
</output>
</layer>
<layer id="60" name="27482752_const" type="Const" version="opset1">
<data element_type="f16" offset="1733" shape="" size="2"/>
<output>
<port id="1" precision="FP16"/>
</output>
</layer>
<layer id="61" name="398/fq_input_0" type="FakeQuantize" version="opset1">
<data levels="256"/>
<input>
<port id="0">
<dim>1</dim>
<dim>32</dim>
<dim>256</dim>
<dim>256</dim>
</port>
<port id="1"/>
<port id="2"/>
<port id="3"/>
<port id="4"/>
</input>
<output>
<port id="5" precision="FP16">
<dim>1</dim>
<dim>32</dim>
<dim>256</dim>
<dim>256</dim>
</port>
</output>
</layer>
<layer id="62" name="398/fq_weights_1/Convert_to_float/Cast_06595_const" type="Const" version="opset1">
<data element_type="u8" offset="1735" shape="16,32,1,1" size="512"/>
<output>
<port id="1" precision="U8">
<dim>16</dim>
<dim>32</dim>
<dim>1</dim>
<dim>1</dim>
</port>
</output>
</layer>
<layer id="63" name="398/fq_weights_1/Convert_to_float" type="Convert" version="opset1">
<data destination_type="f16"/>
<input>
<port id="0">
<dim>16</dim>
<dim>32</dim>
<dim>1</dim>
<dim>1</dim>
</port>
</input>
<output>
<port id="1" precision="FP16">
<dim>16</dim>
<dim>32</dim>
<dim>1</dim>
<dim>1</dim>
</port>
</output>
</layer>
<layer id="64" name="398/fq_weights_1/Copy/out_low5477_const" type="Const" version="opset1">
<data element_type="f16" offset="0" shape="1" size="2"/>
<output>
<port id="1" precision="FP16">
<dim>1</dim>
</port>
</output>
</layer>
<layer id="65" name="398/fq_weights_1/Copy/out_high5478_const" type="Const" version="opset1">
<data element_type="f16" offset="5" shape="1" size="2"/>
<output>
<port id="1" precision="FP16">
<dim>1</dim>
</port>
</output>
</layer>
<layer id="66" name="27572761_const" type="Const" version="opset1">
<data element_type="f16" offset="2247" shape="16,1,1,1" size="32"/>
<output>
<port id="1" precision="FP16">
<dim>16</dim>
<dim>1</dim>
<dim>1</dim>
<dim>1</dim>
</port>
</output>
</layer>
<layer id="67" name="27582762_const" type="Const" version="opset1">
<data element_type="f16" offset="2279" shape="16,1,1,1" size="32"/>
<output>
<port id="1" precision="FP16">
<dim>16</dim>
<dim>1</dim>
<dim>1</dim>
<dim>1</dim>
</port>
</output>
</layer>
<layer id="68" name="398/fq_weights_1" type="FakeQuantize" version="opset1">
<data levels="255"/>
<input>
<port id="0">
<dim>16</dim>
<dim>32</dim>
<dim>1</dim>
<dim>1</dim>
</port>
<port id="1">
<dim>1</dim>
</port>
<port id="2">
<dim>1</dim>
</port>
<port id="3">
<dim>16</dim>
<dim>1</dim>
<dim>1</dim>
<dim>1</dim>
</port>
<port id="4">
<dim>16</dim>
<dim>1</dim>
<dim>1</dim>
<dim>1</dim>
</port>
</input>
<output>
<port id="5" precision="FP16">
<dim>16</dim>
<dim>32</dim>
<dim>1</dim>
<dim>1</dim>
</port>
</output>
</layer>
<layer id="69" name="398" type="Convolution" version="opset1">
<data dilations="1,1" output_padding="0,0" pads_begin="0,0" pads_end="0,0" strides="1,1"/>
<input>
<port id="0">
<dim>1</dim>
<dim>32</dim>
<dim>256</dim>
<dim>256</dim>
</port>
<port id="1">
<dim>16</dim>
<dim>32</dim>
<dim>1</dim>
<dim>1</dim>
</port>
</input>
<output>
<port id="2" precision="FP16">
<dim>1</dim>
<dim>16</dim>
<dim>256</dim>
<dim>256</dim>
</port>
</output>
</layer>
<layer id="70" name="data_add_1153211537/copy_const426_const" type="Const" version="opset1">
<data element_type="f16" offset="2311" shape="1,16,1,1" size="32"/>
<output>
<port id="1" precision="FP16">
<dim>1</dim>
<dim>16</dim>
<dim>1</dim>
<dim>1</dim>
</port>
</output>
</layer>
<layer id="71" name="399/variance/Fused_Add_" type="Add" version="opset1">
<input>
<port id="0">
<dim>1</dim>
<dim>16</dim>
<dim>256</dim>
<dim>256</dim>
</port>
<port id="1">
<dim>1</dim>
<dim>16</dim>
<dim>1</dim>
<dim>1</dim>
</port>
</input>
<output>
<port id="2" precision="FP16">
<dim>1</dim>
<dim>16</dim>
<dim>256</dim>
<dim>256</dim>
</port>
</output>
</layer>
<layer id="72" name="25152519_const" type="Const" version="opset1">
<data element_type="f16" offset="2343" shape="" size="2"/>
<output>
<port id="1" precision="FP16"/>
</output>
</layer>
<layer id="73" name="25162520_const" type="Const" version="opset1">
<data element_type="f16" offset="2345" shape="" size="2"/>
<output>
<port id="1" precision="FP16"/>
</output>
</layer>
<layer id="74" name="25172521_const" type="Const" version="opset1">
<data element_type="f16" offset="2343" shape="" size="2"/>
<output>
<port id="1" precision="FP16"/>
</output>
</layer>
<layer id="75" name="25182522_const" type="Const" version="opset1">
<data element_type="f16" offset="2345" shape="" size="2"/>
<output>
<port id="1" precision="FP16"/>
</output>
</layer>
<layer id="76" name="400/fq_input_0" type="FakeQuantize" version="opset1">
<data levels="256"/>
<input>
<port id="0">
<dim>1</dim>
<dim>16</dim>
<dim>256</dim>
<dim>256</dim>
</port>
<port id="1"/>
<port id="2"/>
<port id="3"/>
<port id="4"/>
</input>
<output>
<port id="5" precision="FP16">
<dim>1</dim>
<dim>16</dim>
<dim>256</dim>
<dim>256</dim>
</port>
</output>
</layer>
<layer id="77" name="400/fq_weights_1/Convert_to_float/Cast_06543_const" type="Const" version="opset1">
<data element_type="u8" offset="2347" shape="96,16,1,1" size="1536"/>
<output>
<port id="1" precision="U8">
<dim>96</dim>
<dim>16</dim>
<dim>1</dim>
<dim>1</dim>
</port>
</output>
</layer>
<layer id="78" name="400/fq_weights_1/Convert_to_float" type="Convert" version="opset1">
<data destination_type="f16"/>
<input>
<port id="0">
<dim>96</dim>
<dim>16</dim>
<dim>1</dim>
<dim>1</dim>
</port>
</input>
<output>
<port id="1" precision="FP16">
<dim>96</dim>
<dim>16</dim>
<dim>1</dim>
<dim>1</dim>
</port>
</output>
</layer>
<layer id="79" name="400/fq_weights_1/Copy/out_low5501_const" type="Const" version="opset1">
<data element_type="f16" offset="0" shape="1" size="2"/>
<output>
<port id="1" precision="FP16">
<dim>1</dim>
</port>
</output>
</layer>
<layer id="80" name="400/fq_weights_1/Copy/out_high5502_const" type="Const" version="opset1">
<data element_type="f16" offset="5" shape="1" size="2"/>
<output>
<port id="1" precision="FP16">
<dim>1</dim>
</port>
</output>
</layer>
<layer id="81" name="25272531_const" type="Const" version="opset1">
<data element_type="f16" offset="3883" shape="96,1,1,1" size="192"/>
<output>
<port id="1" precision="FP16">
<dim>96</dim>
<dim>1</dim>
<dim>1</dim>
<dim>1</dim>
</port>
</output>
</layer>
<layer id="82" name="25282532_const" type="Const" version="opset1">
<data element_type="f16" offset="4075" shape="96,1,1,1" size="192"/>
<output>
<port id="1" precision="FP16">
<dim>96</dim>
<dim>1</dim>
<dim>1</dim>
<dim>1</dim>
</port>
</output>
</layer>
<layer id="83" name="400/fq_weights_1" type="FakeQuantize" version="opset1">
<data levels="255"/>
<input>
<port id="0">
<dim>96</dim>
<dim>16</dim>
<dim>1</dim>
<dim>1</dim>
</port>
<port id="1">
<dim>1</dim>
</port>
<port id="2">
<dim>1</dim>
</port>
<port id="3">
<dim>96</dim>
<dim>1</dim>
<dim>1</dim>
<dim>1</dim>
</port>
<port id="4">
<dim>96</dim>
<dim>1</dim>
<dim>1</dim>
<dim>1</dim>
</port>
</input>
<output>
<port id="5" precision="FP16">
<dim>96</dim>
<dim>16</dim>
<dim>1</dim>
<dim>1</dim>
</port>
</output>
</layer>
<layer id="84" name="400" type="Convolution" version="opset1">
<data dilations="1,1" output_padding="0,0" pads_begin="0,0" pads_end="0,0" strides="1,1"/>
<input>
<port id="0">
<dim>1</dim>
<dim>16</dim>
<dim>256</dim>
<dim>256</dim>
</port>
<port id="1">
<dim>96</dim>
<dim>16</dim>
<dim>1</dim>
<dim>1</dim>
</port>
</input>
<output>
<port id="2" precision="FP16">
<dim>1</dim>
<dim>96</dim>
<dim>256</dim>
<dim>256</dim>
</port>
</output>
</layer>
<layer id="85" name="data_add_1154011545/copy_const430_const" type="Const" version="opset1">
<data element_type="f16" offset="4267" shape="1,96,1,1" size="192"/>
<output>
<port id="1" precision="FP16">
<dim>1</dim>
<dim>96</dim>
<dim>1</dim>
<dim>1</dim>
</port>
</output>
</layer>
<layer id="86" name="401/variance/Fused_Add_" type="Add" version="opset1">
<input>
<port id="0">
<dim>1</dim>
<dim>96</dim>
<dim>256</dim>
<dim>256</dim>
</port>
<port id="1">
<dim>1</dim>
<dim>96</dim>
<dim>1</dim>
<dim>1</dim>
</port>
</input>
<output>
<port id="2" precision="FP16">
<dim>1</dim>
<dim>96</dim>
<dim>256</dim>
<dim>256</dim>
</port>
</output>
</layer>
<layer id="87" name="402" type="ReLU" version="opset1">
<input>
<port id="0">
<dim>1</dim>
<dim>96</dim>
<dim>256</dim>
<dim>256</dim>
</port>
</input>
<output>
<port id="1" precision="FP16">
<dim>1</dim>
<dim>96</dim>
<dim>256</dim>
<dim>256</dim>
</port>
</output>
</layer>
<layer id="88" name="24152419_const" type="Const" version="opset1">
<data element_type="f16" offset="4459" shape="1,96,1,1" size="192"/>
<output>
<port id="1" precision="FP16">
<dim>1</dim>
<dim>96</dim>
<dim>1</dim>
<dim>1</dim>
</port>
</output>
</layer>
<layer id="89" name="24162420_const" type="Const" version="opset1">
<data element_type="f16" offset="4651" shape="1,96,1,1" size="192"/>
<output>
<port id="1" precision="FP16">
<dim>1</dim>
<dim>96</dim>
<dim>1</dim>
<dim>1</dim>
</port>
</output>
</layer>
<layer id="90" name="24172421_const" type="Const" version="opset1">
<data element_type="f16" offset="4459" shape="1,96,1,1" size="192"/>
<output>
<port id="1" precision="FP16">
<dim>1</dim>
<dim>96</dim>
<dim>1</dim>
<dim>1</dim>
</port>
</output>
</layer>
<layer id="91" name="24182422_const" type="Const" version="opset1">
<data element_type="f16" offset="4651" shape="1,96,1,1" size="192"/>
<output>
<port id="1" precision="FP16">
<dim>1</dim>
<dim>96</dim>
<dim>1</dim>
<dim>1</dim>
</port>
</output>
</layer>
<layer id="92" name="403/fq_input_0" type="FakeQuantize" version="opset1">
<data levels="256"/>
<input>
<port id="0">
<dim>1</dim>
<dim>96</dim>
<dim>256</dim>
<dim>256</dim>
</port>
<port id="1">
<dim>1</dim>
<dim>96</dim>
<dim>1</dim>
<dim>1</dim>
</port>
<port id="2">
<dim>1</dim>
<dim>96</dim>
<dim>1</dim>
<dim>1</dim>
</port>
<port id="3">
<dim>1</dim>
<dim>96</dim>
<dim>1</dim>
<dim>1</dim>
</port>
<port id="4">
<dim>1</dim>
<dim>96</dim>
<dim>1</dim>
<dim>1</dim>
</port>
</input>
<output>
<port id="5" precision="FP16">
<dim>1</dim>
<dim>96</dim>
<dim>256</dim>
<dim>256</dim>
</port>
</output>
</layer>
<layer id="93" name="403/fq_weights_1/Convert_to_float/Cast_06603_const" type="Const" version="opset1">
<data element_type="u8" offset="4843" shape="96,1,3,3" size="864"/>
<output>
<port id="1" precision="U8">
<dim>96</dim>
<dim>1</dim>
<dim>3</dim>
<dim>3</dim>
</port>
</output>
</layer>
<layer id="94" name="403/fq_weights_1/Convert_to_float" type="Convert" version="opset1">
<data destination_type="f16"/>
<input>
<port id="0">
<dim>96</dim>
<dim>1</dim>
<dim>3</dim>
<dim>3</dim>
</port>
</input>
<output>
<port id="1" precision="FP16">
<dim>96</dim>
<dim>1</dim>
<dim>3</dim>
<dim>3</dim>
</port>
</output>
</layer>
<layer id="95" name="403/fq_weights_1/Copy/out_low5261_const" type="Const" version="opset1">
<data element_type="f16" offset="0" shape="1" size="2"/>
<output>
<port id="1" precision="FP16">
<dim>1</dim>
</port>
</output>
</layer>
<layer id="96" name="403/fq_weights_1/Copy/out_high5262_const" type="Const" version="opset1">
<data element_type="f16" offset="5" shape="1" size="2"/>
<output>
<port id="1" precision="FP16">
<dim>1</dim>
</port>
</output>
</layer>
<layer id="97" name="24272431_const" type="Const" version="opset1">
<data element_type="f16" offset="5707" shape="96,1,1,1" size="192"/>
<output>
<port id="1" precision="FP16">
<dim>96</dim>
<dim>1</dim>
<dim>1</dim>
<dim>1</dim>
</port>
</output>
</layer>
<layer id="98" name="24282432_const" type="Const" version="opset1">
<data element_type="f16" offset="5899" shape="96,1,1,1" size="192"/>
<output>
<port id="1" precision="FP16">
<dim>96</dim>
<dim>1</dim>
<dim>1</dim>
<dim>1</dim>
</port>
</output>
</layer>
<layer id="99" name="403/fq_weights_1" type="FakeQuantize" version="opset1">
<data levels="255"/>
<input>
<port id="0">
<dim>96</dim>
<dim>1</dim>
<dim>3</dim>
<dim>3</dim>
</port>
<port id="1">
<dim>1</dim>
</port>
<port id="2">
<dim>1</dim>
</port>
<port id="3">
<dim>96</dim>
<dim>1</dim>
<dim>1</dim>
<dim>1</dim>
</port>
<port id="4">
<dim>96</dim>
<dim>1</dim>
<dim>1</dim>
<dim>1</dim>
</port>
</input>
<output>
<port id="5" precision="FP16">
<dim>96</dim>
<dim>1</dim>
<dim>3</dim>
<dim>3</dim>
</port>
</output>
</layer>
<layer id="100" name="7502/value7504_const" type="Const" version="opset1">
<data element_type="i64" offset="6091" shape="5" size="40"/>
<output>
<port id="1" precision="I64">
<dim>5</dim>
</port>
</output>
</layer>
<layer id="101" name="7502" type="Reshape" version="opset1">
<data special_zero="True"/>
<input>
<port id="0">
<dim>96</dim>
<dim>1</dim>
<dim>3</dim>
<dim>3</dim>
</port>
<port id="1">
<dim>5</dim>
</port>
</input>
<output>
<port id="2" precision="FP16">
<dim>96</dim>
<dim>1</dim>
<dim>1</dim>
<dim>3</dim>
<dim>3</dim>
</port>
</output>
</layer>
<layer id="102" name="403" type="GroupConvolution" version="opset1">
<data dilations="1,1" output_padding="0,0" pads_begin="1,1" pads_end="1,1" strides="2,2"/>
<input>
<port id="0">
<dim>1</dim>
<dim>96</dim>
<dim>256</dim>
<dim>256</dim>
</port>
<port id="1">
<dim>96</dim>
<dim>1</dim>
<dim>1</dim>
<dim>3</dim>
<dim>3</dim>
</port>
</input>
<output>
<port id="2" precision="FP16">
<dim>1</dim>
<dim>96</dim>
<dim>128</dim>
<dim>128</dim>
</port>
</output>
</layer>
<layer id="103" name="data_add_1154811553/copy_const435_const" type="Const" version="opset1">
<data element_type="f16" offset="6131" shape="1,96,1,1" size="192"/>
<output>
<port id="1" precision="FP16">
<dim>1</dim>
<dim>96</dim>
<dim>1</dim>
<dim>1</dim>
</port>
</output>
</layer>
<layer id="104" name="404/variance/Fused_Add_" type="Add" version="opset1">
<input>
<port id="0">
<dim>1</dim>
<dim>96</dim>
<dim>128</dim>
<dim>128</dim>
</port>
<port id="1">
<dim>1</dim>
<dim>96</dim>
<dim>1</dim>
<dim>1</dim>
</port>
</input>
<output>
<port id="2" precision="FP16">
<dim>1</dim>
<dim>96</dim>
<dim>128</dim>
<dim>128</dim>
</port>
</output>
</layer>
<layer id="105" name="405" type="ReLU" version="opset1">
<input>
<port id="0">
<dim>1</dim>
<dim>96</dim>
<dim>128</dim>
<dim>128</dim>
</port>
</input>
<output>
<port id="1" precision="FP16">
<dim>1</dim>
<dim>96</dim>
<dim>128</dim>
<dim>128</dim>
</port>
</output>
</layer>
<layer id="106" name="27652769_const" type="Const" version="opset1">
<data element_type="f16" offset="0" shape="" size="2"/>
<output>
<port id="1" precision="FP16"/>
</output>
</layer>
<layer id="107" name="27662770_const" type="Const" version="opset1">
<data element_type="f16" offset="6323" shape="" size="2"/>
<output>
<port id="1" precision="FP16"/>
</output>
</layer>
<layer id="108" name="27672771_const" type="Const" version="opset1">
<data element_type="f16" offset="0" shape="" size="2"/>
<output>
<port id="1" precision="FP16"/>
</output>
</layer>
<layer id="109" name="27682772_const" type="Const" version="opset1">
<data element_type="f16" offset="6323" shape="" size="2"/>
<output>
<port id="1" precision="FP16"/>
</output>
</layer>
<layer id="110" name="406/fq_input_0" type="FakeQuantize" version="opset1">
<data levels="256"/>
<input>
<port id="0">
<dim>1</dim>
<dim>96</dim>
<dim>128</dim>
<dim>128</dim>
</port>
<port id="1"/>
<port id="2"/>
<port id="3"/>
<port id="4"/>
</input>
<output>
<port id="5" precision="FP16">
<dim>1</dim>
<dim>96</dim>
<dim>128</dim>
<dim>128</dim>
</port>
</output>
</layer>
<layer id="111" name="406/fq_weights_1/Convert_to_float/Cast_06551_const" type="Const" version="opset1">
<data element_type="u8" offset="6325" shape="24,96,1,1" size="2304"/>
<output>
<port id="1" precision="U8">
<dim>24</dim>
<dim>96</dim>
<dim>1</dim>
<dim>1</dim>
</port>
</output>
</layer>
<layer id="112" name="406/fq_weights_1/Convert_to_float" type="Convert" version="opset1">
<data destination_type="f16"/>
<input>
<port id="0">
<dim>24</dim>
<dim>96</dim>
<dim>1</dim>
<dim>1</dim>
</port>
</input>
<output>
<port id="1" precision="FP16">
<dim>24</dim>
<dim>96</dim>
<dim>1</dim>
<dim>1</dim>
</port>
</output>
</layer>
<layer id="113" name="406/fq_weights_1/Copy/out_low5757_const" type="Const" version="opset1">
<data element_type="f16" offset="0" shape="1" size="2"/>
<output>
<port id="1" precision="FP16">
<dim>1</dim>
</port>
</output>
</layer>
<layer id="114" name="406/fq_weights_1/Copy/out_high5758_const" type="Const" version="opset1">
<data element_type="f16" offset="5" shape="1" size="2"/>
<output>
<port id="1" precision="FP16">
<dim>1</dim>
</port>
</output>
</layer>
<layer id="115" name="27772781_const" type="Const" version="opset1">
<data element_type="f16" offset="8629" shape="24,1,1,1" size="48"/>
<output>
<port id="1" precision="FP16">
<dim>24</dim>
<dim>1</dim>
<dim>1</dim>
<dim>1</dim>
</port>
</output>
</layer>
<layer id="116" name="27782782_const" type="Const" version="opset1">
<data element_type="f16" offset="8677" shape="24,1,1,1" size="48"/>
<output>
<port id="1" precision="FP16">
<dim>24</dim>
<dim>1</dim>
<dim>1</dim>
<dim>1</dim>
</port>
</output>
</layer>
<layer id="117" name="406/fq_weights_1" type="FakeQuantize" version="opset1">
<data levels="255"/>
<input>
<port id="0">
<dim>24</dim>
<dim>96</dim>
<dim>1</dim>
<dim>1</dim>
</port>
<port id="1">
<dim>1</dim>
</port>
<port id="2">
<dim>1</dim>
</port>
<port id="3">
<dim>24</dim>
<dim>1</dim>
<dim>1</dim>
<dim>1</dim>
</port>
<port id="4">
<dim>24</dim>
<dim>1</dim>
<dim>1</dim>
<dim>1</dim>
</port>
</input>
<output>
<port id="5" precision="FP16">
<dim>24</dim>
<dim>96</dim>
<dim>1</dim>
<dim>1</dim>
</port>
</output>
</layer>
<layer id="118" name="406" type="Convolution" version="opset1">
<data dilations="1,1" output_padding="0,0" pads_begin="0,0" pads_end="0,0" strides="1,1"/>
<input>
<port id="0">
<dim>1</dim>
<dim>96</dim>
<dim>128</dim>
<dim>128</dim>
</port>
<port id="1">
<dim>24</dim>
<dim>96</dim>
<dim>1</dim>
<dim>1</dim>
</port>
</input>
<output>
<port id="2" precision="FP16">
<dim>1</dim>
<dim>24</dim>
<dim>128</dim>
<dim>128</dim>
</port>
</output>
</layer>
<layer id="119" name="data_add_1155611561/copy_const440_const" type="Const" version="opset1">
<data element_type="f16" offset="8725" shape="1,24,1,1" size="48"/>
<output>
<port id="1" precision="FP16">
<dim>1</dim>
<dim>24</dim>
<dim>1</dim>
<dim>1</dim>
</port>
</output>
</layer>
<layer id="120" name="407/variance/Fused_Add_" type="Add" version="opset1">
<input>
<port id="0">
<dim>1</dim>
<dim>24</dim>
<dim>128</dim>
<dim>128</dim>
</port>
<port id="1">
<dim>1</dim>
<dim>24</dim>
<dim>1</dim>
<dim>1</dim>
</port>
</input>
<output>
<port id="2" precision="FP16">
<dim>1</dim>
<dim>24</dim>
<dim>128</dim>
<dim>128</dim>
</port>
</output>
</layer>
<layer id="121" name="26852689_const" type="Const" version="opset1">
<data element_type="f16" offset="8773" shape="" size="2"/>
<output>
<port id="1" precision="FP16"/>
</output>
</layer>
<layer id="122" name="26862690_const" type="Const" version="opset1">
<data element_type="f16" offset="8775" shape="" size="2"/>
<output>
<port id="1" precision="FP16"/>
</output>
</layer>
<layer id="123" name="26872691_const" type="Const" version="opset1">
<data element_type="f16" offset="8773" shape="" size="2"/>
<output>
<port id="1" precision="FP16"/>
</output>
</layer>
<layer id="124" name="26882692_const" type="Const" version="opset1">
<data element_type="f16" offset="8775" shape="" size="2"/>
<output>
<port id="1" precision="FP16"/>
</output>
</layer>
<layer id="125" name="408/fq_input_0" type="FakeQuantize" version="opset1">
<data levels="256"/>
<input>
<port id="0">
<dim>1</dim>
<dim>24</dim>
<dim>128</dim>
<dim>128</dim>
</port>
<port id="1"/>
<port id="2"/>
<port id="3"/>
<port id="4"/>
</input>
<output>
<port id="5" precision="FP16">
<dim>1</dim>
<dim>24</dim>
<dim>128</dim>
<dim>128</dim>
</port>
</output>
</layer>
<layer id="126" name="408/fq_weights_1/Convert_to_float/Cast_06559_const" type="Const" version="opset1">
<data element_type="u8" offset="8777" shape="144,24,1,1" size="3456"/>
<output>
<port id="1" precision="U8">
<dim>144</dim>
<dim>24</dim>
<dim>1</dim>
<dim>1</dim>
</port>
</output>
</layer>
<layer id="127" name="408/fq_weights_1/Convert_to_float" type="Convert" version="opset1">
<data destination_type="f16"/>
<input>
<port id="0">
<dim>144</dim>
<dim>24</dim>
<dim>1</dim>
<dim>1</dim>
</port>
</input>
<output>
<port id="1" precision="FP16">
<dim>144</dim>
<dim>24</dim>
<dim>1</dim>
<dim>1</dim>
</port>
</output>
</layer>
<layer id="128" name="408/fq_weights_1/Copy/out_low5413_const" type="Const" version="opset1">
<data element_type="f16" offset="0" shape="1" size="2"/>
<output>
<port id="1" precision="FP16">
<dim>1</dim>
</port>
</output>
</layer>
<layer id="129" name="408/fq_weights_1/Copy/out_high5414_const" type="Const" version="opset1">
<data element_type="f16" offset="5" shape="1" size="2"/>
<output>
<port id="1" precision="FP16">
<dim>1</dim>
</port>
</output>
</layer>
<layer id="130" name="26972701_const" type="Const" version="opset1">
<data element_type="f16" offset="12233" shape="144,1,1,1" size="288"/>
<output>
<port id="1" precision="FP16">
<dim>144</dim>
<dim>1</dim>
<dim>1</dim>
<dim>1</dim>
</port>
</output>
</layer>
<layer id="131" name="26982702_const" type="Const" version="opset1">
<data element_type="f16" offset="12521" shape="144,1,1,1" size="288"/>
<output>
<port id="1" precision="FP16">
<dim>144</dim>
<dim>1</dim>
<dim>1</dim>
<dim>1</dim>
</port>
</output>
</layer>
<layer id="132" name="408/fq_weights_1" type="FakeQuantize" version="opset1">
<data levels="255"/>
<input>
<port id="0">
<dim>144</dim>
<dim>24</dim>
<dim>1</dim>
<dim>1</dim>
</port>
<port id="1">
<dim>1</dim>
</port>
<port id="2">
<dim>1</dim>
</port>
<port id="3">
<dim>144</dim>
<dim>1</dim>
<dim>1</dim>
<dim>1</dim>
</port>
<port id="4">
<dim>144</dim>
<dim>1</dim>
<dim>1</dim>
<dim>1</dim>
</port>
</input>
<output>
<port id="5" precision="FP16">
<dim>144</dim>
<dim>24</dim>
<dim>1</dim>
<dim>1</dim>
</port>
</output>
</layer>
<layer id="133" name="408" type="Convolution" version="opset1">
<data dilations="1,1" output_padding="0,0" pads_begin="0,0" pads_end="0,0" strides="1,1"/>
<input>
<port id="0">
<dim>1</dim>
<dim>24</dim>
<dim>128</dim>
<dim>128</dim>
</port>
<port id="1">
<dim>144</dim>
<dim>24</dim>
<dim>1</dim>
<dim>1</dim>
</port>
</input>
<output>
<port id="2" precision="FP16">
<dim>1</dim>
<dim>144</dim>
<dim>128</dim>
<dim>128</dim>
</port>
</output>
</layer>
<layer id="134" name="data_add_1156411569/copy_const444_const" type="Const" version="opset1">
<data element_type="f16" offset="12809" shape="1,144,1,1" size="288"/>
<output>
<port id="1" precision="FP16">
<dim>1</dim>
<dim>144</dim>
<dim>1</dim>
<dim>1</dim>
</port>
</output>
</layer>
<layer id="135" name="409/variance/Fused_Add_" type="Add" version="opset1">
<input>
<port id="0">
<dim>1</dim>
<dim>144</dim>
<dim>128</dim>
<dim>128</dim>
</port>
<port id="1">
<dim>1</dim>
<dim>144</dim>
<dim>1</dim>
<dim>1</dim>
</port>
</input>
<output>
<port id="2" precision="FP16">
<dim>1</dim>
<dim>144</dim>
<dim>128</dim>
<dim>128</dim>
</port>
</output>
</layer>
<layer id="136" name="410" type="ReLU" version="opset1">
<input>
<port id="0">
<dim>1</dim>
<dim>144</dim>
<dim>128</dim>
<dim>128</dim>
</port>
</input>
<output>
<port id="1" precision="FP16">
<dim>1</dim>
<dim>144</dim>
<dim>128</dim>
<dim>128</dim>
</port>
</output>
</layer>
<layer id="137" name="17751779_const" type="Const" version="opset1">
<data element_type="f16" offset="13097" shape="1,144,1,1" size="288"/>
<output>
<port id="1" precision="FP16">
<dim>1</dim>
<dim>144</dim>
<dim>1</dim>
<dim>1</dim>
</port>
</output>
</layer>
<layer id="138" name="17761780_const" type="Const" version="opset1">
<data element_type="f16" offset="13385" shape="1,144,1,1" size="288"/>
<output>
<port id="1" precision="FP16">
<dim>1</dim>
<dim>144</dim>
<dim>1</dim>
<dim>1</dim>
</port>
</output>
</layer>
<layer id="139" name="17771781_const" type="Const" version="opset1">
<data element_type="f16" offset="13097" shape="1,144,1,1" size="288"/>
<output>
<port id="1" precision="FP16">
<dim>1</dim>
<dim>144</dim>
<dim>1</dim>
<dim>1</dim>
</port>
</output>
</layer>
<layer id="140" name="17781782_const" type="Const" version="opset1">
<data element_type="f16" offset="13385" shape="1,144,1,1" size="288"/>
<output>
<port id="1" precision="FP16">
<dim>1</dim>
<dim>144</dim>
<dim>1</dim>
<dim>1</dim>
</port>
</output>
</layer>
<layer id="141" name="411/fq_input_0" type="FakeQuantize" version="opset1">
<data levels="256"/>
<input>
<port id="0">
<dim>1</dim>
<dim>144</dim>
<dim>128</dim>
<dim>128</dim>
</port>
<port id="1">
<dim>1</dim>
<dim>144</dim>
<dim>1</dim>
<dim>1</dim>
</port>
<port id="2">
<dim>1</dim>
<dim>144</dim>
<dim>1</dim>
<dim>1</dim>
</port>
<port id="3">
<dim>1</dim>
<dim>144</dim>
<dim>1</dim>
<dim>1</dim>
</port>
<port id="4">
<dim>1</dim>
<dim>144</dim>
<dim>1</dim>
<dim>1</dim>
</port>
</input>
<output>
<port id="5" precision="FP16">
<dim>1</dim>
<dim>144</dim>
<dim>128</dim>
<dim>128</dim>
</port>
</output>
</layer>
<layer id="142" name="411/fq_weights_1/Convert_to_float/Cast_06707_const" type="Const" version="opset1">
<data element_type="u8" offset="13673" shape="144,1,3,3" size="1296"/>
<output>
<port id="1" precision="U8">
<dim>144</dim>
<dim>1</dim>
<dim>3</dim>
<dim>3</dim>
</port>
</output>
</layer>
<layer id="143" name="411/fq_weights_1/Convert_to_float" type="Convert" version="opset1">
<data destination_type="f16"/>
<input>
<port id="0">
<dim>144</dim>
<dim>1</dim>
<dim>3</dim>
<dim>3</dim>
</port>
</input>
<output>
<port id="1" precision="FP16">
<dim>144</dim>
<dim>1</dim>
<dim>3</dim>
<dim>3</dim>
</port>
</output>
</layer>
<layer id="144" name="411/fq_weights_1/Copy/out_low5781_const" type="Const" version="opset1">
<data element_type="f16" offset="0" shape="1" size="2"/>
<output>
<port id="1" precision="FP16">
<dim>1</dim>
</port>
</output>
</layer>
<layer id="145" name="411/fq_weights_1/Copy/out_high5782_const" type="Const" version="opset1">
<data element_type="f16" offset="5" shape="1" size="2"/>
<output>
<port id="1" precision="FP16">
<dim>1</dim>
</port>
</output>
</layer>
<layer id="146" name="17871791_const" type="Const" version="opset1">
<data element_type="f16" offset="14969" shape="144,1,1,1" size="288"/>
<output>
<port id="1" precision="FP16">
<dim>144</dim>
<dim>1</dim>
<dim>1</dim>
<dim>1</dim>
</port>
</output>
</layer>
<layer id="147" name="17881792_const" type="Const" version="opset1">
<data element_type="f16" offset="15257" shape="144,1,1,1" size="288"/>
<output>
<port id="1" precision="FP16">
<dim>144</dim>
<dim>1</dim>
<dim>1</dim>
<dim>1</dim>
</port>
</output>
</layer>
<layer id="148" name="411/fq_weights_1" type="FakeQuantize" version="opset1">
<data levels="255"/>
<input>
<port id="0">
<dim>144</dim>
<dim>1</dim>
<dim>3</dim>
<dim>3</dim>
</port>
<port id="1">
<dim>1</dim>
</port>
<port id="2">
<dim>1</dim>
</port>
<port id="3">
<dim>144</dim>
<dim>1</dim>
<dim>1</dim>
<dim>1</dim>
</port>
<port id="4">
<dim>144</dim>
<dim>1</dim>
<dim>1</dim>
<dim>1</dim>
</port>
</input>
<output>
<port id="5" precision="FP16">
<dim>144</dim>
<dim>1</dim>
<dim>3</dim>
<dim>3</dim>
</port>
</output>
</layer>
<layer id="149" name="7466/value7468_const" type="Const" version="opset1">
<data element_type="i64" offset="15545" shape="5" size="40"/>
<output>
<port id="1" precision="I64">
<dim>5</dim>
</port>
</output>
</layer>
<layer id="150" name="7466" type="Reshape" version="opset1">
<data special_zero="True"/>
<input>
<port id="0">
<dim>144</dim>
<dim>1</dim>
<dim>3</dim>
<dim>3</dim>
</port>
<port id="1">
<dim>5</dim>
</port>
</input>
<output>
<port id="2" precision="FP16">
<dim>144</dim>
<dim>1</dim>
<dim>1</dim>
<dim>3</dim>
<dim>3</dim>
</port>
</output>
</layer>
<layer id="151" name="411" type="GroupConvolution" version="opset1">
<data dilations="1,1" output_padding="0,0" pads_begin="1,1" pads_end="1,1" strides="1,1"/>
<input>
<port id="0">
<dim>1</dim>
<dim>144</dim>
<dim>128</dim>
<dim>128</dim>
</port>
<port id="1">
<dim>144</dim>
<dim>1</dim>
<dim>1</dim>
<dim>3</dim>
<dim>3</dim>
</port>
</input>
<output>
<port id="2" precision="FP16">
<dim>1</dim>
<dim>144</dim>
<dim>128</dim>
<dim>128</dim>
</port>
</output>
</layer>
<layer id="152" name="data_add_1157211577/copy_const449_const" type="Const" version="opset1">
<data element_type="f16" offset="15585" shape="1,144,1,1" size="288"/>
<output>
<port id="1" precision="FP16">
<dim>1</dim>
<dim>144</dim>
<dim>1</dim>
<dim>1</dim>
</port>
</output>
</layer>
<layer id="153" name="412/variance/Fused_Add_" type="Add" version="opset1">
<input>
<port id="0">
<dim>1</dim>
<dim>144</dim>
<dim>128</dim>
<dim>128</dim>
</port>
<port id="1">
<dim>1</dim>
<dim>144</dim>
<dim>1</dim>
<dim>1</dim>
</port>
</input>
<output>
<port id="2" precision="FP16">
<dim>1</dim>
<dim>144</dim>
<dim>128</dim>
<dim>128</dim>
</port>
</output>
</layer>
<layer id="154" name="413" type="ReLU" version="opset1">
<input>
<port id="0">
<dim>1</dim>
<dim>144</dim>
<dim>128</dim>
<dim>128</dim>
</port>
</input>
<output>
<port id="1" precision="FP16">
<dim>1</dim>
<dim>144</dim>
<dim>128</dim>
<dim>128</dim>
</port>
</output>
</layer>
<layer id="155" name="20952099_const" type="Const" version="opset1">
<data element_type="f16" offset="0" shape="" size="2"/>
<output>
<port id="1" precision="FP16"/>
</output>
</layer>
<layer id="156" name="20962100_const" type="Const" version="opset1">
<data element_type="f16" offset="15873" shape="" size="2"/>
<output>
<port id="1" precision="FP16"/>
</output>
</layer>
<layer id="157" name="20972101_const" type="Const" version="opset1">
<data element_type="f16" offset="0" shape="" size="2"/>
<output>
<port id="1" precision="FP16"/>
</output>
</layer>
<layer id="158" name="20982102_const" type="Const" version="opset1">
<data element_type="f16" offset="15873" shape="" size="2"/>
<output>
<port id="1" precision="FP16"/>
</output>
</layer>
<layer id="159" name="414/fq_input_0" type="FakeQuantize" version="opset1">
<data levels="256"/>
<input>
<port id="0">
<dim>1</dim>
<dim>144</dim>
<dim>128</dim>
<dim>128</dim>
</port>
<port id="1"/>
<port id="2"/>
<port id="3"/>
<port id="4"/>
</input>
<output>
<port id="5" precision="FP16">
<dim>1</dim>
<dim>144</dim>
<dim>128</dim>
<dim>128</dim>
</port>
</output>
</layer>
<layer id="160" name="414/fq_weights_1/Convert_to_float/Cast_06685_const" type="Const" version="opset1">
<data element_type="u8" offset="15875" shape="24,144,1,1" size="3456"/>
<output>
<port id="1" precision="U8">
<dim>24</dim>
<dim>144</dim>
<dim>1</dim>
<dim>1</dim>
</port>
</output>
</layer>
<layer id="161" name="414/fq_weights_1/Convert_to_float" type="Convert" version="opset1">
<data destination_type="f16"/>
<input>
<port id="0">
<dim>24</dim>
<dim>144</dim>
<dim>1</dim>
<dim>1</dim>
</port>
</input>
<output>
<port id="1" precision="FP16">
<dim>24</dim>
<dim>144</dim>
<dim>1</dim>
<dim>1</dim>
</port>
</output>
</layer>
<layer id="162" name="414/fq_weights_1/Copy/out_low5421_const" type="Const" version="opset1">
<data element_type="f16" offset="0" shape="1" size="2"/>
<output>
<port id="1" precision="FP16">
<dim>1</dim>
</port>
</output>
</layer>
<layer id="163" name="414/fq_weights_1/Copy/out_high5422_const" type="Const" version="opset1">
<data element_type="f16" offset="5" shape="1" size="2"/>
<output>
<port id="1" precision="FP16">
<dim>1</dim>
</port>
</output>
</layer>
<layer id="164" name="21072111_const" type="Const" version="opset1">
<data element_type="f16" offset="19331" shape="24,1,1,1" size="48"/>
<output>
<port id="1" precision="FP16">
<dim>24</dim>
<dim>1</dim>
<dim>1</dim>
<dim>1</dim>
</port>
</output>
</layer>
<layer id="165" name="21082112_const" type="Const" version="opset1">
<data element_type="f16" offset="19379" shape="24,1,1,1" size="48"/>
<output>
<port id="1" precision="FP16">
<dim>24</dim>
<dim>1</dim>
<dim>1</dim>
<dim>1</dim>
</port>
</output>
</layer>
<layer id="166" name="414/fq_weights_1" type="FakeQuantize" version="opset1">
<data levels="255"/>
<input>
<port id="0">
<dim>24</dim>
<dim>144</dim>
<dim>1</dim>
<dim>1</dim>
</port>
<port id="1">
<dim>1</dim>
</port>
<port id="2">
<dim>1</dim>
</port>
<port id="3">
<dim>24</dim>
<dim>1</dim>
<dim>1</dim>
<dim>1</dim>
</port>
<port id="4">
<dim>24</dim>
<dim>1</dim>
<dim>1</dim>
<dim>1</dim>
</port>
</input>
<output>
<port id="5" precision="FP16">
<dim>24</dim>
<dim>144</dim>
<dim>1</dim>
<dim>1</dim>
</port>
</output>
</layer>
<layer id="167" name="414" type="Convolution" version="opset1">
<data dilations="1,1" output_padding="0,0" pads_begin="0,0" pads_end="0,0" strides="1,1"/>
<input>
<port id="0">
<dim>1</dim>
<dim>144</dim>
<dim>128</dim>
<dim>128</dim>
</port>
<port id="1">
<dim>24</dim>
<dim>144</dim>
<dim>1</dim>
<dim>1</dim>
</port>
</input>
<output>
<port id="2" precision="FP16">
<dim>1</dim>
<dim>24</dim>
<dim>128</dim>
<dim>128</dim>
</port>
</output>
</layer>
<layer id="168" name="data_add_1158011585/copy_const454_const" type="Const" version="opset1">
<data element_type="f16" offset="19427" shape="1,24,1,1" size="48"/>
<output>
<port id="1" precision="FP16">
<dim>1</dim>
<dim>24</dim>
<dim>1</dim>
<dim>1</dim>
</port>
</output>
</layer>
<layer id="169" name="415/variance/Fused_Add_" type="Add" version="opset1">
<input>
<port id="0">
<dim>1</dim>
<dim>24</dim>
<dim>128</dim>
<dim>128</dim>
</port>
<port id="1">
<dim>1</dim>
<dim>24</dim>
<dim>1</dim>
<dim>1</dim>
</port>
</input>
<output>
<port id="2" precision="FP16">
<dim>1</dim>
<dim>24</dim>
<dim>128</dim>
<dim>128</dim>
</port>
</output>
</layer>
<layer id="170" name="22252229_const" type="Const" version="opset1">
<data element_type="f16" offset="19475" shape="" size="2"/>
<output>
<port id="1" precision="FP16"/>
</output>
</layer>
<layer id="171" name="22262230_const" type="Const" version="opset1">
<data element_type="f16" offset="19477" shape="" size="2"/>
<output>
<port id="1" precision="FP16"/>
</output>
</layer>
<layer id="172" name="22272231_const" type="Const" version="opset1">
<data element_type="f16" offset="19475" shape="" size="2"/>
<output>
<port id="1" precision="FP16"/>
</output>
</layer>
<layer id="173" name="22282232_const" type="Const" version="opset1">
<data element_type="f16" offset="19477" shape="" size="2"/>
<output>
<port id="1" precision="FP16"/>
</output>
</layer>
<layer id="174" name="416/fq_input_1" type="FakeQuantize" version="opset1">
<data levels="256"/>
<input>
<port id="0">
<dim>1</dim>
<dim>24</dim>
<dim>128</dim>
<dim>128</dim>
</port>
<port id="1"/>
<port id="2"/>
<port id="3"/>
<port id="4"/>
</input>
<output>
<port id="5" precision="FP16">
<dim>1</dim>
<dim>24</dim>
<dim>128</dim>
<dim>128</dim>
</port>
</output>
</layer>
<layer id="175" name="416" type="Add" version="opset1">
<input>
<port id="0">
<dim>1</dim>
<dim>24</dim>
<dim>128</dim>
<dim>128</dim>
</port>
<port id="1">
<dim>1</dim>
<dim>24</dim>
<dim>128</dim>
<dim>128</dim>
</port>
</input>
<output>
<port id="2" precision="FP16">
<dim>1</dim>
<dim>24</dim>
<dim>128</dim>
<dim>128</dim>
</port>
</output>
</layer>
<layer id="176" name="26152619_const" type="Const" version="opset1">
<data element_type="f16" offset="19479" shape="" size="2"/>
<output>
<port id="1" precision="FP16"/>
</output>
</layer>
<layer id="177" name="26162620_const" type="Const" version="opset1">
<data element_type="f16" offset="19481" shape="" size="2"/>
<output>
<port id="1" precision="FP16"/>
</output>
</layer>
<layer id="178" name="26172621_const" type="Const" version="opset1">
<data element_type="f16" offset="19479" shape="" size="2"/>
<output>
<port id="1" precision="FP16"/>
</output>
</layer>
<layer id="179" name="26182622_const" type="Const" version="opset1">
<data element_type="f16" offset="19481" shape="" size="2"/>
<output>
<port id="1" precision="FP16"/>
</output>
</layer>
<layer id="180" name="417/fq_input_0" type="FakeQuantize" version="opset1">
<data levels="256"/>
<input>
<port id="0">
<dim>1</dim>
<dim>24</dim>
<dim>128</dim>
<dim>128</dim>
</port>
<port id="1"/>
<port id="2"/>
<port id="3"/>
<port id="4"/>
</input>
<output>
<port id="5" precision="FP16">
<dim>1</dim>
<dim>24</dim>
<dim>128</dim>
<dim>128</dim>
</port>
</output>
</layer>
<layer id="181" name="417/fq_weights_1/Convert_to_float/Cast_06583_const" type="Const" version="opset1">
<data element_type="u8" offset="19483" shape="144,24,1,1" size="3456"/>
<output>
<port id="1" precision="U8">
<dim>144</dim>
<dim>24</dim>
<dim>1</dim>
<dim>1</dim>
</port>
</output>
</layer>
<layer id="182" name="417/fq_weights_1/Convert_to_float" type="Convert" version="opset1">
<data destination_type="f16"/>
<input>
<port id="0">
<dim>144</dim>
<dim>24</dim>
<dim>1</dim>
<dim>1</dim>
</port>
</input>
<output>
<port id="1" precision="FP16">
<dim>144</dim>
<dim>24</dim>
<dim>1</dim>
<dim>1</dim>
</port>
</output>
</layer>
<layer id="183" name="417/fq_weights_1/Copy/out_low5621_const" type="Const" version="opset1">
<data element_type="f16" offset="0" shape="1" size="2"/>
<output>
<port id="1" precision="FP16">
<dim>1</dim>
</port>
</output>
</layer>
<layer id="184" name="417/fq_weights_1/Copy/out_high5622_const" type="Const" version="opset1">
<data element_type="f16" offset="5" shape="1" size="2"/>
<output>
<port id="1" precision="FP16">
<dim>1</dim>
</port>
</output>
</layer>
<layer id="185" name="26272631_const" type="Const" version="opset1">
<data element_type="f16" offset="22939" shape="144,1,1,1" size="288"/>
<output>
<port id="1" precision="FP16">
<dim>144</dim>
<dim>1</dim>
<dim>1</dim>
<dim>1</dim>
</port>
</output>
</layer>
<layer id="186" name="26282632_const" type="Const" version="opset1">
<data element_type="f16" offset="23227" shape="144,1,1,1" size="288"/>
<output>
<port id="1" precision="FP16">
<dim>144</dim>
<dim>1</dim>
<dim>1</dim>
<dim>1</dim>
</port>
</output>
</layer>
<layer id="187" name="417/fq_weights_1" type="FakeQuantize" version="opset1">
<data levels="255"/>
<input>
<port id="0">
<dim>144</dim>
<dim>24</dim>
<dim>1</dim>
<dim>1</dim>
</port>
<port id="1">
<dim>1</dim>
</port>
<port id="2">
<dim>1</dim>
</port>
<port id="3">
<dim>144</dim>
<dim>1</dim>
<dim>1</dim>
<dim>1</dim>
</port>
<port id="4">
<dim>144</dim>
<dim>1</dim>
<dim>1</dim>
<dim>1</dim>
</port>
</input>
<output>
<port id="5" precision="FP16">
<dim>144</dim>
<dim>24</dim>
<dim>1</dim>
<dim>1</dim>
</port>
</output>
</layer>
<layer id="188" name="417" type="Convolution" version="opset1">
<data dilations="1,1" output_padding="0,0" pads_begin="0,0" pads_end="0,0" strides="1,1"/>
<input>
<port id="0">
<dim>1</dim>
<dim>24</dim>
<dim>128</dim>
<dim>128</dim>
</port>
<port id="1">
<dim>144</dim>
<dim>24</dim>
<dim>1</dim>
<dim>1</dim>
</port>
</input>
<output>
<port id="2" precision="FP16">
<dim>1</dim>
<dim>144</dim>
<dim>128</dim>
<dim>128</dim>
</port>
</output>
</layer>
<layer id="189" name="data_add_1158811593/copy_const459_const" type="Const" version="opset1">
<data element_type="f16" offset="23515" shape="1,144,1,1" size="288"/>
<output>
<port id="1" precision="FP16">
<dim>1</dim>
<dim>144</dim>
<dim>1</dim>
<dim>1</dim>
</port>
</output>
</layer>
<layer id="190" name="418/variance/Fused_Add_" type="Add" version="opset1">
<input>
<port id="0">
<dim>1</dim>
<dim>144</dim>
<dim>128</dim>
<dim>128</dim>
</port>
<port id="1">
<dim>1</dim>
<dim>144</dim>
<dim>1</dim>
<dim>1</dim>
</port>
</input>
<output>
<port id="2" precision="FP16">
<dim>1</dim>
<dim>144</dim>
<dim>128</dim>
<dim>128</dim>
</port>
</output>
</layer>
<layer id="191" name="419" type="ReLU" version="opset1">
<input>
<port id="0">
<dim>1</dim>
<dim>144</dim>
<dim>128</dim>
<dim>128</dim>
</port>
</input>
<output>
<port id="1" precision="FP16">
<dim>1</dim>
<dim>144</dim>
<dim>128</dim>
<dim>128</dim>
</port>
</output>
</layer>
<layer id="192" name="18751879_const" type="Const" version="opset1">
<data element_type="f16" offset="13097" shape="1,144,1,1" size="288"/>
<output>
<port id="1" precision="FP16">
<dim>1</dim>
<dim>144</dim>
<dim>1</dim>
<dim>1</dim>
</port>
</output>
</layer>
<layer id="193" name="18761880_const" type="Const" version="opset1">
<data element_type="f16" offset="23803" shape="1,144,1,1" size="288"/>
<output>
<port id="1" precision="FP16">
<dim>1</dim>
<dim>144</dim>
<dim>1</dim>
<dim>1</dim>
</port>
</output>
</layer>
<layer id="194" name="18771881_const" type="Const" version="opset1">
<data element_type="f16" offset="13097" shape="1,144,1,1" size="288"/>
<output>
<port id="1" precision="FP16">
<dim>1</dim>
<dim>144</dim>
<dim>1</dim>
<dim>1</dim>
</port>
</output>
</layer>
<layer id="195" name="18781882_const" type="Const" version="opset1">
<data element_type="f16" offset="23803" shape="1,144,1,1" size="288"/>
<output>
<port id="1" precision="FP16">
<dim>1</dim>
<dim>144</dim>
<dim>1</dim>
<dim>1</dim>
</port>
</output>
</layer>
<layer id="196" name="420/fq_input_0" type="FakeQuantize" version="opset1">
<data levels="256"/>
<input>
<port id="0">
<dim>1</dim>
<dim>144</dim>
<dim>128</dim>
<dim>128</dim>
</port>
<port id="1">
<dim>1</dim>
<dim>144</dim>
<dim>1</dim>
<dim>1</dim>
</port>
<port id="2">
<dim>1</dim>
<dim>144</dim>
<dim>1</dim>
<dim>1</dim>
</port>
<port id="3">
<dim>1</dim>
<dim>144</dim>
<dim>1</dim>
<dim>1</dim>
</port>
<port id="4">
<dim>1</dim>
<dim>144</dim>
<dim>1</dim>
<dim>1</dim>
</port>
</input>
<output>
<port id="5" precision="FP16">
<dim>1</dim>
<dim>144</dim>
<dim>128</dim>
<dim>128</dim>
</port>
</output>
</layer>
<layer id="197" name="420/fq_weights_1/Convert_to_float/Cast_06699_const" type="Const" version="opset1">
<data element_type="u8" offset="24091" shape="144,1,3,3" size="1296"/>
<output>
<port id="1" precision="U8">
<dim>144</dim>
<dim>1</dim>
<dim>3</dim>
<dim>3</dim>
</port>
</output>
</layer>
<layer id="198" name="420/fq_weights_1/Convert_to_float" type="Convert" version="opset1">
<data destination_type="f16"/>
<input>
<port id="0">
<dim>144</dim>
<dim>1</dim>
<dim>3</dim>
<dim>3</dim>
</port>
</input>
<output>
<port id="1" precision="FP16">
<dim>144</dim>
<dim>1</dim>
<dim>3</dim>
<dim>3</dim>
</port>
</output>
</layer>
<layer id="199" name="420/fq_weights_1/Copy/out_low5445_const" type="Const" version="opset1">
<data element_type="f16" offset="0" shape="1" size="2"/>
<output>
<port id="1" precision="FP16">
<dim>1</dim>
</port>
</output>
</layer>
<layer id="200" name="420/fq_weights_1/Copy/out_high5446_const" type="Const" version="opset1">
<data element_type="f16" offset="5" shape="1" size="2"/>
<output>
<port id="1" precision="FP16">
<dim>1</dim>
</port>
</output>
</layer>
<layer id="201" name="18871891_const" type="Const" version="opset1">
<data element_type="f16" offset="25387" shape="144,1,1,1" size="288"/>
<output>
<port id="1" precision="FP16">
<dim>144</dim>
<dim>1</dim>
<dim>1</dim>
<dim>1</dim>
</port>
</output>
</layer>
<layer id="202" name="18881892_const" type="Const" version="opset1">
<data element_type="f16" offset="25675" shape="144,1,1,1" size="288"/>
<output>
<port id="1" precision="FP16">
<dim>144</dim>
<dim>1</dim>
<dim>1</dim>
<dim>1</dim>
</port>
</output>
</layer>
<layer id="203" name="420/fq_weights_1" type="FakeQuantize" version="opset1">
<data levels="255"/>
<input>
<port id="0">
<dim>144</dim>
<dim>1</dim>
<dim>3</dim>
<dim>3</dim>
</port>
<port id="1">
<dim>1</dim>
</port>
<port id="2">
<dim>1</dim>
</port>
<port id="3">
<dim>144</dim>
<dim>1</dim>
<dim>1</dim>
<dim>1</dim>
</port>
<port id="4">
<dim>144</dim>
<dim>1</dim>
<dim>1</dim>
<dim>1</dim>
</port>
</input>
<output>
<port id="5" precision="FP16">
<dim>144</dim>
<dim>1</dim>
<dim>3</dim>
<dim>3</dim>
</port>
</output>
</layer>
<layer id="204" name="7470/value7472_const" type="Const" version="opset1">
<data element_type="i64" offset="15545" shape="5" size="40"/>
<output>
<port id="1" precision="I64">
<dim>5</dim>
</port>
</output>
</layer>
<layer id="205" name="7470" type="Reshape" version="opset1">
<data special_zero="True"/>
<input>
<port id="0">
<dim>144</dim>
<dim>1</dim>
<dim>3</dim>
<dim>3</dim>
</port>
<port id="1">
<dim>5</dim>
</port>
</input>
<output>
<port id="2" precision="FP16">
<dim>144</dim>
<dim>1</dim>
<dim>1</dim>
<dim>3</dim>
<dim>3</dim>
</port>
</output>
</layer>
<layer id="206" name="420" type="GroupConvolution" version="opset1">
<data dilations="1,1" output_padding="0,0" pads_begin="1,1" pads_end="1,1" strides="2,2"/>
<input>
<port id="0">
<dim>1</dim>
<dim>144</dim>
<dim>128</dim>
<dim>128</dim>
</port>
<port id="1">
<dim>144</dim>
<dim>1</dim>
<dim>1</dim>
<dim>3</dim>
<dim>3</dim>
</port>
</input>
<output>
<port id="2" precision="FP16">
<dim>1</dim>
<dim>144</dim>
<dim>64</dim>
<dim>64</dim>
</port>
</output>
</layer>
<layer id="207" name="data_add_1159611601/copy_const464_const" type="Const" version="opset1">
<data element_type="f16" offset="25963" shape="1,144,1,1" size="288"/>
<output>
<port id="1" precision="FP16">
<dim>1</dim>
<dim>144</dim>
<dim>1</dim>
<dim>1</dim>
</port>
</output>
</layer>
<layer id="208" name="421/variance/Fused_Add_" type="Add" version="opset1">
<input>
<port id="0">
<dim>1</dim>
<dim>144</dim>
<dim>64</dim>
<dim>64</dim>
</port>
<port id="1">
<dim>1</dim>
<dim>144</dim>
<dim>1</dim>
<dim>1</dim>
</port>
</input>
<output>
<port id="2" precision="FP16">
<dim>1</dim>
<dim>144</dim>
<dim>64</dim>
<dim>64</dim>
</port>
</output>
</layer>
<layer id="209" name="422" type="ReLU" version="opset1">
<input>
<port id="0">
<dim>1</dim>
<dim>144</dim>
<dim>64</dim>
<dim>64</dim>
</port>
</input>
<output>
<port id="1" precision="FP16">
<dim>1</dim>
<dim>144</dim>
<dim>64</dim>
<dim>64</dim>
</port>
</output>
</layer>
<layer id="210" name="13951399_const" type="Const" version="opset1">
<data element_type="f16" offset="0" shape="" size="2"/>
<output>
<port id="1" precision="FP16"/>
</output>
</layer>
<layer id="211" name="13961400_const" type="Const" version="opset1">
<data element_type="f16" offset="26251" shape="" size="2"/>
<output>
<port id="1" precision="FP16"/>
</output>
</layer>
<layer id="212" name="13971401_const" type="Const" version="opset1">
<data element_type="f16" offset="0" shape="" size="2"/>
<output>
<port id="1" precision="FP16"/>
</output>
</layer>
<layer id="213" name="13981402_const" type="Const" version="opset1">
<data element_type="f16" offset="26251" shape="" size="2"/>
<output>
<port id="1" precision="FP16"/>
</output>
</layer>
<layer id="214" name="423/fq_input_0" type="FakeQuantize" version="opset1">
<data levels="256"/>
<input>
<port id="0">
<dim>1</dim>
<dim>144</dim>
<dim>64</dim>
<dim>64</dim>
</port>
<port id="1"/>
<port id="2"/>
<port id="3"/>
<port id="4"/>
</input>
<output>
<port id="5" precision="FP16">
<dim>1</dim>
<dim>144</dim>
<dim>64</dim>
<dim>64</dim>
</port>
</output>
</layer>
<layer id="215" name="423/fq_weights_1/Convert_to_float/Cast_06575_const" type="Const" version="opset1">
<data element_type="u8" offset="26253" shape="32,144,1,1" size="4608"/>
<output>
<port id="1" precision="U8">
<dim>32</dim>
<dim>144</dim>
<dim>1</dim>
<dim>1</dim>
</port>
</output>
</layer>
<layer id="216" name="423/fq_weights_1/Convert_to_float" type="Convert" version="opset1">
<data destination_type="f16"/>
<input>
<port id="0">
<dim>32</dim>
<dim>144</dim>
<dim>1</dim>
<dim>1</dim>
</port>
</input>
<output>
<port id="1" precision="FP16">
<dim>32</dim>
<dim>144</dim>
<dim>1</dim>
<dim>1</dim>
</port>
</output>
</layer>
<layer id="217" name="423/fq_weights_1/Copy/out_low5613_const" type="Const" version="opset1">
<data element_type="f16" offset="0" shape="1" size="2"/>
<output>
<port id="1" precision="FP16">
<dim>1</dim>
</port>
</output>
</layer>
<layer id="218" name="423/fq_weights_1/Copy/out_high5614_const" type="Const" version="opset1">
<data element_type="f16" offset="5" shape="1" size="2"/>
<output>
<port id="1" precision="FP16">
<dim>1</dim>
</port>
</output>
</layer>
<layer id="219" name="14071411_const" type="Const" version="opset1">
<data element_type="f16" offset="30861" shape="32,1,1,1" size="64"/>
<output>
<port id="1" precision="FP16">
<dim>32</dim>
<dim>1</dim>
<dim>1</dim>
<dim>1</dim>
</port>
</output>
</layer>
<layer id="220" name="14081412_const" type="Const" version="opset1">
<data element_type="f16" offset="30925" shape="32,1,1,1" size="64"/>
<output>
<port id="1" precision="FP16">
<dim>32</dim>
<dim>1</dim>
<dim>1</dim>
<dim>1</dim>
</port>
</output>
</layer>
<layer id="221" name="423/fq_weights_1" type="FakeQuantize" version="opset1">
<data levels="255"/>
<input>
<port id="0">
<dim>32</dim>
<dim>144</dim>
<dim>1</dim>
<dim>1</dim>
</port>
<port id="1">
<dim>1</dim>
</port>
<port id="2">
<dim>1</dim>
</port>
<port id="3">
<dim>32</dim>
<dim>1</dim>
<dim>1</dim>
<dim>1</dim>
</port>
<port id="4">
<dim>32</dim>
<dim>1</dim>
<dim>1</dim>
<dim>1</dim>
</port>
</input>
<output>
<port id="5" precision="FP16">
<dim>32</dim>
<dim>144</dim>
<dim>1</dim>
<dim>1</dim>
</port>
</output>
</layer>
<layer id="222" name="423" type="Convolution" version="opset1">
<data dilations="1,1" output_padding="0,0" pads_begin="0,0" pads_end="0,0" strides="1,1"/>
<input>
<port id="0">
<dim>1</dim>
<dim>144</dim>
<dim>64</dim>
<dim>64</dim>
</port>
<port id="1">
<dim>32</dim>
<dim>144</dim>
<dim>1</dim>
<dim>1</dim>
</port>
</input>
<output>
<port id="2" precision="FP16">
<dim>1</dim>
<dim>32</dim>
<dim>64</dim>
<dim>64</dim>
</port>
</output>
</layer>
<layer id="223" name="data_add_1160411609/copy_const469_const" type="Const" version="opset1">
<data element_type="f16" offset="30989" shape="1,32,1,1" size="64"/>
<output>
<port id="1" precision="FP16">
<dim>1</dim>
<dim>32</dim>
<dim>1</dim>
<dim>1</dim>
</port>
</output>
</layer>
<layer id="224" name="424/variance/Fused_Add_" type="Add" version="opset1">
<input>
<port id="0">
<dim>1</dim>
<dim>32</dim>
<dim>64</dim>
<dim>64</dim>
</port>
<port id="1">
<dim>1</dim>
<dim>32</dim>
<dim>1</dim>
<dim>1</dim>
</port>
</input>
<output>
<port id="2" precision="FP16">
<dim>1</dim>
<dim>32</dim>
<dim>64</dim>
<dim>64</dim>
</port>
</output>
</layer>
<layer id="225" name="13351339_const" type="Const" version="opset1">
<data element_type="f16" offset="31053" shape="" size="2"/>
<output>
<port id="1" precision="FP16"/>
</output>
</layer>
<layer id="226" name="13361340_const" type="Const" version="opset1">
<data element_type="f16" offset="31055" shape="" size="2"/>
<output>
<port id="1" precision="FP16"/>
</output>
</layer>
<layer id="227" name="13371341_const" type="Const" version="opset1">
<data element_type="f16" offset="31053" shape="" size="2"/>
<output>
<port id="1" precision="FP16"/>
</output>
</layer>
<layer id="228" name="13381342_const" type="Const" version="opset1">
<data element_type="f16" offset="31055" shape="" size="2"/>
<output>
<port id="1" precision="FP16"/>
</output>
</layer>
<layer id="229" name="425/fq_input_0" type="FakeQuantize" version="opset1">
<data levels="256"/>
<input>
<port id="0">
<dim>1</dim>
<dim>32</dim>
<dim>64</dim>
<dim>64</dim>
</port>
<port id="1"/>
<port id="2"/>
<port id="3"/>
<port id="4"/>
</input>
<output>
<port id="5" precision="FP16">
<dim>1</dim>
<dim>32</dim>
<dim>64</dim>
<dim>64</dim>
</port>
</output>
</layer>
<layer id="230" name="425/fq_weights_1/Convert_to_float/Cast_06657_const" type="Const" version="opset1">
<data element_type="u8" offset="31057" shape="192,32,1,1" size="6144"/>
<output>
<port id="1" precision="U8">
<dim>192</dim>
<dim>32</dim>
<dim>1</dim>
<dim>1</dim>
</port>
</output>
</layer>
<layer id="231" name="425/fq_weights_1/Convert_to_float" type="Convert" version="opset1">
<data destination_type="f16"/>
<input>
<port id="0">
<dim>192</dim>
<dim>32</dim>
<dim>1</dim>
<dim>1</dim>
</port>
</input>
<output>
<port id="1" precision="FP16">
<dim>192</dim>
<dim>32</dim>
<dim>1</dim>
<dim>1</dim>
</port>
</output>
</layer>
<layer id="232" name="425/fq_weights_1/Copy/out_low5437_const" type="Const" version="opset1">
<data element_type="f16" offset="0" shape="1" size="2"/>
<output>
<port id="1" precision="FP16">
<dim>1</dim>
</port>
</output>
</layer>
<layer id="233" name="425/fq_weights_1/Copy/out_high5438_const" type="Const" version="opset1">
<data element_type="f16" offset="5" shape="1" size="2"/>
<output>
<port id="1" precision="FP16">
<dim>1</dim>
</port>
</output>
</layer>
<layer id="234" name="13471351_const" type="Const" version="opset1">
<data element_type="f16" offset="37201" shape="192,1,1,1" size="384"/>
<output>
<port id="1" precision="FP16">
<dim>192</dim>
<dim>1</dim>
<dim>1</dim>
<dim>1</dim>
</port>
</output>
</layer>
<layer id="235" name="13481352_const" type="Const" version="opset1">
<data element_type="f16" offset="37585" shape="192,1,1,1" size="384"/>
<output>
<port id="1" precision="FP16">
<dim>192</dim>
<dim>1</dim>
<dim>1</dim>
<dim>1</dim>
</port>
</output>
</layer>
<layer id="236" name="425/fq_weights_1" type="FakeQuantize" version="opset1">
<data levels="255"/>
<input>
<port id="0">
<dim>192</dim>
<dim>32</dim>
<dim>1</dim>
<dim>1</dim>
</port>
<port id="1">
<dim>1</dim>
</port>
<port id="2">
<dim>1</dim>
</port>
<port id="3">
<dim>192</dim>
<dim>1</dim>
<dim>1</dim>
<dim>1</dim>
</port>
<port id="4">
<dim>192</dim>
<dim>1</dim>
<dim>1</dim>
<dim>1</dim>
</port>
</input>
<output>
<port id="5" precision="FP16">
<dim>192</dim>
<dim>32</dim>
<dim>1</dim>
<dim>1</dim>
</port>
</output>
</layer>
<layer id="237" name="425" type="Convolution" version="opset1">
<data dilations="1,1" output_padding="0,0" pads_begin="0,0" pads_end="0,0" strides="1,1"/>
<input>
<port id="0">
<dim>1</dim>
<dim>32</dim>
<dim>64</dim>
<dim>64</dim>
</port>
<port id="1">
<dim>192</dim>
<dim>32</dim>
<dim>1</dim>
<dim>1</dim>
</port>
</input>
<output>
<port id="2" precision="FP16">
<dim>1</dim>
<dim>192</dim>
<dim>64</dim>
<dim>64</dim>
</port>
</output>
</layer>
<layer id="238" name="data_add_1161211617/copy_const473_const" type="Const" version="opset1">
<data element_type="f16" offset="37969" shape="1,192,1,1" size="384"/>
<output>
<port id="1" precision="FP16">
<dim>1</dim>
<dim>192</dim>
<dim>1</dim>
<dim>1</dim>
</port>
</output>
</layer>
<layer id="239" name="426/variance/Fused_Add_" type="Add" version="opset1">
<input>
<port id="0">
<dim>1</dim>
<dim>192</dim>
<dim>64</dim>
<dim>64</dim>
</port>
<port id="1">
<dim>1</dim>
<dim>192</dim>
<dim>1</dim>
<dim>1</dim>
</port>
</input>
<output>
<port id="2" precision="FP16">
<dim>1</dim>
<dim>192</dim>
<dim>64</dim>
<dim>64</dim>
</port>
</output>
</layer>
<layer id="240" name="427" type="ReLU" version="opset1">
<input>
<port id="0">
<dim>1</dim>
<dim>192</dim>
<dim>64</dim>
<dim>64</dim>
</port>
</input>
<output>
<port id="1" precision="FP16">
<dim>1</dim>
<dim>192</dim>
<dim>64</dim>
<dim>64</dim>
</port>
</output>
</layer>
<layer id="241" name="18151819_const" type="Const" version="opset1">
<data element_type="f16" offset="38353" shape="1,192,1,1" size="384"/>
<output>
<port id="1" precision="FP16">
<dim>1</dim>
<dim>192</dim>
<dim>1</dim>
<dim>1</dim>
</port>
</output>
</layer>
<layer id="242" name="18161820_const" type="Const" version="opset1">
<data element_type="f16" offset="38737" shape="1,192,1,1" size="384"/>
<output>
<port id="1" precision="FP16">
<dim>1</dim>
<dim>192</dim>
<dim>1</dim>
<dim>1</dim>
</port>
</output>
</layer>
<layer id="243" name="18171821_const" type="Const" version="opset1">
<data element_type="f16" offset="38353" shape="1,192,1,1" size="384"/>
<output>
<port id="1" precision="FP16">
<dim>1</dim>
<dim>192</dim>
<dim>1</dim>
<dim>1</dim>
</port>
</output>
</layer>
<layer id="244" name="18181822_const" type="Const" version="opset1">
<data element_type="f16" offset="38737" shape="1,192,1,1" size="384"/>
<output>
<port id="1" precision="FP16">
<dim>1</dim>
<dim>192</dim>
<dim>1</dim>
<dim>1</dim>
</port>
</output>
</layer>
<layer id="245" name="428/fq_input_0" type="FakeQuantize" version="opset1">
<data levels="256"/>
<input>
<port id="0">
<dim>1</dim>
<dim>192</dim>
<dim>64</dim>
<dim>64</dim>
</port>
<port id="1">
<dim>1</dim>
<dim>192</dim>
<dim>1</dim>
<dim>1</dim>
</port>
<port id="2">
<dim>1</dim>
<dim>192</dim>
<dim>1</dim>
<dim>1</dim>
</port>
<port id="3">
<dim>1</dim>
<dim>192</dim>
<dim>1</dim>
<dim>1</dim>
</port>
<port id="4">
<dim>1</dim>
<dim>192</dim>
<dim>1</dim>
<dim>1</dim>
</port>
</input>
<output>
<port id="5" precision="FP16">
<dim>1</dim>
<dim>192</dim>
<dim>64</dim>
<dim>64</dim>
</port>
</output>
</layer>
<layer id="246" name="428/fq_weights_1/Convert_to_float/Cast_06689_const" type="Const" version="opset1">
<data element_type="u8" offset="39121" shape="192,1,3,3" size="1728"/>
<output>
<port id="1" precision="U8">
<dim>192</dim>
<dim>1</dim>
<dim>3</dim>
<dim>3</dim>
</port>
</output>
</layer>
<layer id="247" name="428/fq_weights_1/Convert_to_float" type="Convert" version="opset1">
<data destination_type="f16"/>
<input>
<port id="0">
<dim>192</dim>
<dim>1</dim>
<dim>3</dim>
<dim>3</dim>
</port>
</input>
<output>
<port id="1" precision="FP16">
<dim>192</dim>
<dim>1</dim>
<dim>3</dim>
<dim>3</dim>
</port>
</output>
</layer>
<layer id="248" name="428/fq_weights_1/Copy/out_low5253_const" type="Const" version="opset1">
<data element_type="f16" offset="0" shape="1" size="2"/>
<output>
<port id="1" precision="FP16">
<dim>1</dim>
</port>
</output>
</layer>
<layer id="249" name="428/fq_weights_1/Copy/out_high5254_const" type="Const" version="opset1">
<data element_type="f16" offset="5" shape="1" size="2"/>
<output>
<port id="1" precision="FP16">
<dim>1</dim>
</port>
</output>
</layer>
<layer id="250" name="18271831_const" type="Const" version="opset1">
<data element_type="f16" offset="40849" shape="192,1,1,1" size="384"/>
<output>
<port id="1" precision="FP16">
<dim>192</dim>
<dim>1</dim>
<dim>1</dim>
<dim>1</dim>
</port>
</output>
</layer>
<layer id="251" name="18281832_const" type="Const" version="opset1">
<data element_type="f16" offset="41233" shape="192,1,1,1" size="384"/>
<output>
<port id="1" precision="FP16">
<dim>192</dim>
<dim>1</dim>
<dim>1</dim>
<dim>1</dim>
</port>
</output>
</layer>
<layer id="252" name="428/fq_weights_1" type="FakeQuantize" version="opset1">
<data levels="255"/>
<input>
<port id="0">
<dim>192</dim>
<dim>1</dim>
<dim>3</dim>
<dim>3</dim>
</port>
<port id="1">
<dim>1</dim>
</port>
<port id="2">
<dim>1</dim>
</port>
<port id="3">
<dim>192</dim>
<dim>1</dim>
<dim>1</dim>
<dim>1</dim>
</port>
<port id="4">
<dim>192</dim>
<dim>1</dim>
<dim>1</dim>
<dim>1</dim>
</port>
</input>
<output>
<port id="5" precision="FP16">
<dim>192</dim>
<dim>1</dim>
<dim>3</dim>
<dim>3</dim>
</port>
</output>
</layer>
<layer id="253" name="7522/value7524_const" type="Const" version="opset1">
<data element_type="i64" offset="41617" shape="5" size="40"/>
<output>
<port id="1" precision="I64">
<dim>5</dim>
</port>
</output>
</layer>
<layer id="254" name="7522" type="Reshape" version="opset1">
<data special_zero="True"/>
<input>
<port id="0">
<dim>192</dim>
<dim>1</dim>
<dim>3</dim>
<dim>3</dim>
</port>
<port id="1">
<dim>5</dim>
</port>
</input>
<output>
<port id="2" precision="FP16">
<dim>192</dim>
<dim>1</dim>
<dim>1</dim>
<dim>3</dim>
<dim>3</dim>
</port>
</output>
</layer>
<layer id="255" name="428" type="GroupConvolution" version="opset1">
<data dilations="1,1" output_padding="0,0" pads_begin="1,1" pads_end="1,1" strides="1,1"/>
<input>
<port id="0">
<dim>1</dim>
<dim>192</dim>
<dim>64</dim>
<dim>64</dim>
</port>
<port id="1">
<dim>192</dim>
<dim>1</dim>
<dim>1</dim>
<dim>3</dim>
<dim>3</dim>
</port>
</input>
<output>
<port id="2" precision="FP16">
<dim>1</dim>
<dim>192</dim>
<dim>64</dim>
<dim>64</dim>
</port>
</output>
</layer>
<layer id="256" name="data_add_1162011625/copy_const478_const" type="Const" version="opset1">
<data element_type="f16" offset="41657" shape="1,192,1,1" size="384"/>
<output>
<port id="1" precision="FP16">
<dim>1</dim>
<dim>192</dim>
<dim>1</dim>
<dim>1</dim>
</port>
</output>
</layer>
<layer id="257" name="429/variance/Fused_Add_" type="Add" version="opset1">
<input>
<port id="0">
<dim>1</dim>
<dim>192</dim>
<dim>64</dim>
<dim>64</dim>
</port>
<port id="1">
<dim>1</dim>
<dim>192</dim>
<dim>1</dim>
<dim>1</dim>
</port>
</input>
<output>
<port id="2" precision="FP16">
<dim>1</dim>
<dim>192</dim>
<dim>64</dim>
<dim>64</dim>
</port>
</output>
</layer>
<layer id="258" name="430" type="ReLU" version="opset1">
<input>
<port id="0">
<dim>1</dim>
<dim>192</dim>
<dim>64</dim>
<dim>64</dim>
</port>
</input>
<output>
<port id="1" precision="FP16">
<dim>1</dim>
<dim>192</dim>
<dim>64</dim>
<dim>64</dim>
</port>
</output>
</layer>
<layer id="259" name="27252729_const" type="Const" version="opset1">
<data element_type="f16" offset="0" shape="" size="2"/>
<output>
<port id="1" precision="FP16"/>
</output>
</layer>
<layer id="260" name="27262730_const" type="Const" version="opset1">
<data element_type="f16" offset="42041" shape="" size="2"/>
<output>
<port id="1" precision="FP16"/>
</output>
</layer>
<layer id="261" name="27272731_const" type="Const" version="opset1">
<data element_type="f16" offset="0" shape="" size="2"/>
<output>
<port id="1" precision="FP16"/>
</output>
</layer>
<layer id="262" name="27282732_const" type="Const" version="opset1">
<data element_type="f16" offset="42041" shape="" size="2"/>
<output>
<port id="1" precision="FP16"/>
</output>
</layer>
<layer id="263" name="431/fq_input_0" type="FakeQuantize" version="opset1">
<data levels="256"/>
<input>
<port id="0">
<dim>1</dim>
<dim>192</dim>
<dim>64</dim>
<dim>64</dim>
</port>
<port id="1"/>
<port id="2"/>
<port id="3"/>
<port id="4"/>
</input>
<output>
<port id="5" precision="FP16">
<dim>1</dim>
<dim>192</dim>
<dim>64</dim>
<dim>64</dim>
</port>
</output>
</layer>
<layer id="264" name="431/fq_weights_1/Convert_to_float/Cast_06709_const" type="Const" version="opset1">
<data element_type="u8" offset="42043" shape="32,192,1,1" size="6144"/>
<output>
<port id="1" precision="U8">
<dim>32</dim>
<dim>192</dim>
<dim>1</dim>
<dim>1</dim>
</port>
</output>
</layer>
<layer id="265" name="431/fq_weights_1/Convert_to_float" type="Convert" version="opset1">
<data destination_type="f16"/>
<input>
<port id="0">
<dim>32</dim>
<dim>192</dim>
<dim>1</dim>
<dim>1</dim>
</port>
</input>
<output>
<port id="1" precision="FP16">
<dim>32</dim>
<dim>192</dim>
<dim>1</dim>
<dim>1</dim>
</port>
</output>
</layer>
<layer id="266" name="431/fq_weights_1/Copy/out_low5629_const" type="Const" version="opset1">
<data element_type="f16" offset="0" shape="1" size="2"/>
<output>
<port id="1" precision="FP16">
<dim>1</dim>
</port>
</output>
</layer>
<layer id="267" name="431/fq_weights_1/Copy/out_high5630_const" type="Const" version="opset1">
<data element_type="f16" offset="5" shape="1" size="2"/>
<output>
<port id="1" precision="FP16">
<dim>1</dim>
</port>
</output>
</layer>
<layer id="268" name="27372741_const" type="Const" version="opset1">
<data element_type="f16" offset="48187" shape="32,1,1,1" size="64"/>
<output>
<port id="1" precision="FP16">
<dim>32</dim>
<dim>1</dim>
<dim>1</dim>
<dim>1</dim>
</port>
</output>
</layer>
<layer id="269" name="27382742_const" type="Const" version="opset1">
<data element_type="f16" offset="48251" shape="32,1,1,1" size="64"/>
<output>
<port id="1" precision="FP16">
<dim>32</dim>
<dim>1</dim>
<dim>1</dim>
<dim>1</dim>
</port>
</output>
</layer>
<layer id="270" name="431/fq_weights_1" type="FakeQuantize" version="opset1">
<data levels="255"/>
<input>
<port id="0">
<dim>32</dim>
<dim>192</dim>
<dim>1</dim>
<dim>1</dim>
</port>
<port id="1">
<dim>1</dim>
</port>
<port id="2">
<dim>1</dim>
</port>
<port id="3">
<dim>32</dim>
<dim>1</dim>
<dim>1</dim>
<dim>1</dim>
</port>
<port id="4">
<dim>32</dim>
<dim>1</dim>
<dim>1</dim>
<dim>1</dim>
</port>
</input>
<output>
<port id="5" precision="FP16">
<dim>32</dim>
<dim>192</dim>
<dim>1</dim>
<dim>1</dim>
</port>
</output>
</layer>
<layer id="271" name="431" type="Convolution" version="opset1">
<data dilations="1,1" output_padding="0,0" pads_begin="0,0" pads_end="0,0" strides="1,1"/>
<input>
<port id="0">
<dim>1</dim>
<dim>192</dim>
<dim>64</dim>
<dim>64</dim>
</port>
<port id="1">
<dim>32</dim>
<dim>192</dim>
<dim>1</dim>
<dim>1</dim>
</port>
</input>
<output>
<port id="2" precision="FP16">
<dim>1</dim>
<dim>32</dim>
<dim>64</dim>
<dim>64</dim>
</port>
</output>
</layer>
<layer id="272" name="data_add_1162811633/copy_const483_const" type="Const" version="opset1">
<data element_type="f16" offset="48315" shape="1,32,1,1" size="64"/>
<output>
<port id="1" precision="FP16">
<dim>1</dim>
<dim>32</dim>
<dim>1</dim>
<dim>1</dim>
</port>
</output>
</layer>
<layer id="273" name="432/variance/Fused_Add_" type="Add" version="opset1">
<input>
<port id="0">
<dim>1</dim>
<dim>32</dim>
<dim>64</dim>
<dim>64</dim>
</port>
<port id="1">
<dim>1</dim>
<dim>32</dim>
<dim>1</dim>
<dim>1</dim>
</port>
</input>
<output>
<port id="2" precision="FP16">
<dim>1</dim>
<dim>32</dim>
<dim>64</dim>
<dim>64</dim>
</port>
</output>
</layer>
<layer id="274" name="23852389_const" type="Const" version="opset1">
<data element_type="f16" offset="48379" shape="" size="2"/>
<output>
<port id="1" precision="FP16"/>
</output>
</layer>
<layer id="275" name="23862390_const" type="Const" version="opset1">
<data element_type="f16" offset="48381" shape="" size="2"/>
<output>
<port id="1" precision="FP16"/>
</output>
</layer>
<layer id="276" name="23872391_const" type="Const" version="opset1">
<data element_type="f16" offset="48379" shape="" size="2"/>
<output>
<port id="1" precision="FP16"/>
</output>
</layer>
<layer id="277" name="23882392_const" type="Const" version="opset1">
<data element_type="f16" offset="48381" shape="" size="2"/>
<output>
<port id="1" precision="FP16"/>
</output>
</layer>
<layer id="278" name="433/fq_input_1" type="FakeQuantize" version="opset1">
<data levels="256"/>
<input>
<port id="0">
<dim>1</dim>
<dim>32</dim>
<dim>64</dim>
<dim>64</dim>
</port>
<port id="1"/>
<port id="2"/>
<port id="3"/>
<port id="4"/>
</input>
<output>
<port id="5" precision="FP16">
<dim>1</dim>
<dim>32</dim>
<dim>64</dim>
<dim>64</dim>
</port>
</output>
</layer>
<layer id="279" name="433" type="Add" version="opset1">
<input>
<port id="0">
<dim>1</dim>
<dim>32</dim>
<dim>64</dim>
<dim>64</dim>
</port>
<port id="1">
<dim>1</dim>
<dim>32</dim>
<dim>64</dim>
<dim>64</dim>
</port>
</input>
<output>
<port id="2" precision="FP16">
<dim>1</dim>
<dim>32</dim>
<dim>64</dim>
<dim>64</dim>
</port>
</output>
</layer>
<layer id="280" name="18351839_const" type="Const" version="opset1">
<data element_type="f16" offset="48383" shape="" size="2"/>
<output>
<port id="1" precision="FP16"/>
</output>
</layer>
<layer id="281" name="18361840_const" type="Const" version="opset1">
<data element_type="f16" offset="48385" shape="" size="2"/>
<output>
<port id="1" precision="FP16"/>
</output>
</layer>
<layer id="282" name="18371841_const" type="Const" version="opset1">
<data element_type="f16" offset="48383" shape="" size="2"/>
<output>
<port id="1" precision="FP16"/>
</output>
</layer>
<layer id="283" name="18381842_const" type="Const" version="opset1">
<data element_type="f16" offset="48385" shape="" size="2"/>
<output>
<port id="1" precision="FP16"/>
</output>
</layer>
<layer id="284" name="434/fq_input_0" type="FakeQuantize" version="opset1">
<data levels="256"/>
<input>
<port id="0">
<dim>1</dim>
<dim>32</dim>
<dim>64</dim>
<dim>64</dim>
</port>
<port id="1"/>
<port id="2"/>
<port id="3"/>
<port id="4"/>
</input>
<output>
<port id="5" precision="FP16">
<dim>1</dim>
<dim>32</dim>
<dim>64</dim>
<dim>64</dim>
</port>
</output>
</layer>
<layer id="285" name="434/fq_weights_1/Convert_to_float/Cast_06589_const" type="Const" version="opset1">
<data element_type="u8" offset="48387" shape="192,32,1,1" size="6144"/>
<output>
<port id="1" precision="U8">
<dim>192</dim>
<dim>32</dim>
<dim>1</dim>
<dim>1</dim>
</port>
</output>
</layer>
<layer id="286" name="434/fq_weights_1/Convert_to_float" type="Convert" version="opset1">
<data destination_type="f16"/>
<input>
<port id="0">
<dim>192</dim>
<dim>32</dim>
<dim>1</dim>
<dim>1</dim>
</port>
</input>
<output>
<port id="1" precision="FP16">
<dim>192</dim>
<dim>32</dim>
<dim>1</dim>
<dim>1</dim>
</port>
</output>
</layer>
<layer id="287" name="434/fq_weights_1/Copy/out_low5581_const" type="Const" version="opset1">
<data element_type="f16" offset="0" shape="1" size="2"/>
<output>
<port id="1" precision="FP16">
<dim>1</dim>
</port>
</output>
</layer>
<layer id="288" name="434/fq_weights_1/Copy/out_high5582_const" type="Const" version="opset1">
<data element_type="f16" offset="5" shape="1" size="2"/>
<output>
<port id="1" precision="FP16">
<dim>1</dim>
</port>
</output>
</layer>
<layer id="289" name="18471851_const" type="Const" version="opset1">
<data element_type="f16" offset="54531" shape="192,1,1,1" size="384"/>
<output>
<port id="1" precision="FP16">
<dim>192</dim>
<dim>1</dim>
<dim>1</dim>
<dim>1</dim>
</port>
</output>
</layer>
<layer id="290" name="18481852_const" type="Const" version="opset1">
<data element_type="f16" offset="54915" shape="192,1,1,1" size="384"/>
<output>
<port id="1" precision="FP16">
<dim>192</dim>
<dim>1</dim>
<dim>1</dim>
<dim>1</dim>
</port>
</output>
</layer>
<layer id="291" name="434/fq_weights_1" type="FakeQuantize" version="opset1">
<data levels="255"/>
<input>
<port id="0">
<dim>192</dim>
<dim>32</dim>
<dim>1</dim>
<dim>1</dim>
</port>
<port id="1">
<dim>1</dim>
</port>
<port id="2">
<dim>1</dim>
</port>
<port id="3">
<dim>192</dim>
<dim>1</dim>
<dim>1</dim>
<dim>1</dim>
</port>
<port id="4">
<dim>192</dim>
<dim>1</dim>
<dim>1</dim>
<dim>1</dim>
</port>
</input>
<output>
<port id="5" precision="FP16">
<dim>192</dim>
<dim>32</dim>
<dim>1</dim>
<dim>1</dim>
</port>
</output>
</layer>
<layer id="292" name="434" type="Convolution" version="opset1">
<data dilations="1,1" output_padding="0,0" pads_begin="0,0" pads_end="0,0" strides="1,1"/>
<input>
<port id="0">
<dim>1</dim>
<dim>32</dim>
<dim>64</dim>
<dim>64</dim>
</port>
<port id="1">
<dim>192</dim>
<dim>32</dim>
<dim>1</dim>
<dim>1</dim>
</port>
</input>
<output>
<port id="2" precision="FP16">
<dim>1</dim>
<dim>192</dim>
<dim>64</dim>
<dim>64</dim>
</port>
</output>
</layer>
<layer id="293" name="data_add_1163611641/copy_const488_const" type="Const" version="opset1">
<data element_type="f16" offset="55299" shape="1,192,1,1" size="384"/>
<output>
<port id="1" precision="FP16">
<dim>1</dim>
<dim>192</dim>
<dim>1</dim>
<dim>1</dim>
</port>
</output>
</layer>
<layer id="294" name="435/variance/Fused_Add_" type="Add" version="opset1">
<input>
<port id="0">
<dim>1</dim>
<dim>192</dim>
<dim>64</dim>
<dim>64</dim>
</port>
<port id="1">
<dim>1</dim>
<dim>192</dim>
<dim>1</dim>
<dim>1</dim>
</port>
</input>
<output>
<port id="2" precision="FP16">
<dim>1</dim>
<dim>192</dim>
<dim>64</dim>
<dim>64</dim>
</port>
</output>
</layer>
<layer id="295" name="436" type="ReLU" version="opset1">
<input>
<port id="0">
<dim>1</dim>
<dim>192</dim>
<dim>64</dim>
<dim>64</dim>
</port>
</input>
<output>
<port id="1" precision="FP16">
<dim>1</dim>
<dim>192</dim>
<dim>64</dim>
<dim>64</dim>
</port>
</output>
</layer>
<layer id="296" name="25952599_const" type="Const" version="opset1">
<data element_type="f16" offset="38353" shape="1,192,1,1" size="384"/>
<output>
<port id="1" precision="FP16">
<dim>1</dim>
<dim>192</dim>
<dim>1</dim>
<dim>1</dim>
</port>
</output>
</layer>
<layer id="297" name="25962600_const" type="Const" version="opset1">
<data element_type="f16" offset="55683" shape="1,192,1,1" size="384"/>
<output>
<port id="1" precision="FP16">
<dim>1</dim>
<dim>192</dim>
<dim>1</dim>
<dim>1</dim>
</port>
</output>
</layer>
<layer id="298" name="25972601_const" type="Const" version="opset1">
<data element_type="f16" offset="38353" shape="1,192,1,1" size="384"/>
<output>
<port id="1" precision="FP16">
<dim>1</dim>
<dim>192</dim>
<dim>1</dim>
<dim>1</dim>
</port>
</output>
</layer>
<layer id="299" name="25982602_const" type="Const" version="opset1">
<data element_type="f16" offset="55683" shape="1,192,1,1" size="384"/>
<output>
<port id="1" precision="FP16">
<dim>1</dim>
<dim>192</dim>
<dim>1</dim>
<dim>1</dim>
</port>
</output>
</layer>
<layer id="300" name="437/fq_input_0" type="FakeQuantize" version="opset1">
<data levels="256"/>
<input>
<port id="0">
<dim>1</dim>
<dim>192</dim>
<dim>64</dim>
<dim>64</dim>
</port>
<port id="1">
<dim>1</dim>
<dim>192</dim>
<dim>1</dim>
<dim>1</dim>
</port>
<port id="2">
<dim>1</dim>
<dim>192</dim>
<dim>1</dim>
<dim>1</dim>
</port>
<port id="3">
<dim>1</dim>
<dim>192</dim>
<dim>1</dim>
<dim>1</dim>
</port>
<port id="4">
<dim>1</dim>
<dim>192</dim>
<dim>1</dim>
<dim>1</dim>
</port>
</input>
<output>
<port id="5" precision="FP16">
<dim>1</dim>
<dim>192</dim>
<dim>64</dim>
<dim>64</dim>
</port>
</output>
</layer>
<layer id="301" name="437/fq_weights_1/Convert_to_float/Cast_06611_const" type="Const" version="opset1">
<data element_type="u8" offset="56067" shape="192,1,3,3" size="1728"/>
<output>
<port id="1" precision="U8">
<dim>192</dim>
<dim>1</dim>
<dim>3</dim>
<dim>3</dim>
</port>
</output>
</layer>
<layer id="302" name="437/fq_weights_1/Convert_to_float" type="Convert" version="opset1">
<data destination_type="f16"/>
<input>
<port id="0">
<dim>192</dim>
<dim>1</dim>
<dim>3</dim>
<dim>3</dim>
</port>
</input>
<output>
<port id="1" precision="FP16">
<dim>192</dim>
<dim>1</dim>
<dim>3</dim>
<dim>3</dim>
</port>
</output>
</layer>
<layer id="303" name="437/fq_weights_1/Copy/out_low5733_const" type="Const" version="opset1">
<data element_type="f16" offset="0" shape="1" size="2"/>
<output>
<port id="1" precision="FP16">
<dim>1</dim>
</port>
</output>
</layer>
<layer id="304" name="437/fq_weights_1/Copy/out_high5734_const" type="Const" version="opset1">
<data element_type="f16" offset="5" shape="1" size="2"/>
<output>
<port id="1" precision="FP16">
<dim>1</dim>
</port>
</output>
</layer>
<layer id="305" name="26072611_const" type="Const" version="opset1">
<data element_type="f16" offset="57795" shape="192,1,1,1" size="384"/>
<output>
<port id="1" precision="FP16">
<dim>192</dim>
<dim>1</dim>
<dim>1</dim>
<dim>1</dim>
</port>
</output>
</layer>
<layer id="306" name="26082612_const" type="Const" version="opset1">
<data element_type="f16" offset="58179" shape="192,1,1,1" size="384"/>
<output>
<port id="1" precision="FP16">
<dim>192</dim>
<dim>1</dim>
<dim>1</dim>
<dim>1</dim>
</port>
</output>
</layer>
<layer id="307" name="437/fq_weights_1" type="FakeQuantize" version="opset1">
<data levels="255"/>
<input>
<port id="0">
<dim>192</dim>
<dim>1</dim>
<dim>3</dim>
<dim>3</dim>
</port>
<port id="1">
<dim>1</dim>
</port>
<port id="2">
<dim>1</dim>
</port>
<port id="3">
<dim>192</dim>
<dim>1</dim>
<dim>1</dim>
<dim>1</dim>
</port>
<port id="4">
<dim>192</dim>
<dim>1</dim>
<dim>1</dim>
<dim>1</dim>
</port>
</input>
<output>
<port id="5" precision="FP16">
<dim>192</dim>
<dim>1</dim>
<dim>3</dim>
<dim>3</dim>
</port>
</output>
</layer>
<layer id="308" name="7550/value7552_const" type="Const" version="opset1">
<data element_type="i64" offset="41617" shape="5" size="40"/>
<output>
<port id="1" precision="I64">
<dim>5</dim>
</port>
</output>
</layer>
<layer id="309" name="7550" type="Reshape" version="opset1">
<data special_zero="True"/>
<input>
<port id="0">
<dim>192</dim>
<dim>1</dim>
<dim>3</dim>
<dim>3</dim>
</port>
<port id="1">
<dim>5</dim>
</port>
</input>
<output>
<port id="2" precision="FP16">
<dim>192</dim>
<dim>1</dim>
<dim>1</dim>
<dim>3</dim>
<dim>3</dim>
</port>
</output>
</layer>
<layer id="310" name="437" type="GroupConvolution" version="opset1">
<data dilations="1,1" output_padding="0,0" pads_begin="1,1" pads_end="1,1" strides="1,1"/>
<input>
<port id="0">
<dim>1</dim>
<dim>192</dim>
<dim>64</dim>
<dim>64</dim>
</port>
<port id="1">
<dim>192</dim>
<dim>1</dim>
<dim>1</dim>
<dim>3</dim>
<dim>3</dim>
</port>
</input>
<output>
<port id="2" precision="FP16">
<dim>1</dim>
<dim>192</dim>
<dim>64</dim>
<dim>64</dim>
</port>
</output>
</layer>
<layer id="311" name="data_add_1164411649/copy_const493_const" type="Const" version="opset1">
<data element_type="f16" offset="58563" shape="1,192,1,1" size="384"/>
<output>
<port id="1" precision="FP16">
<dim>1</dim>
<dim>192</dim>
<dim>1</dim>
<dim>1</dim>
</port>
</output>
</layer>
<layer id="312" name="438/variance/Fused_Add_" type="Add" version="opset1">
<input>
<port id="0">
<dim>1</dim>
<dim>192</dim>
<dim>64</dim>
<dim>64</dim>
</port>
<port id="1">
<dim>1</dim>
<dim>192</dim>
<dim>1</dim>
<dim>1</dim>
</port>
</input>
<output>
<port id="2" precision="FP16">
<dim>1</dim>
<dim>192</dim>
<dim>64</dim>
<dim>64</dim>
</port>
</output>
</layer>
<layer id="313" name="439" type="ReLU" version="opset1">
<input>
<port id="0">
<dim>1</dim>
<dim>192</dim>
<dim>64</dim>
<dim>64</dim>
</port>
</input>
<output>
<port id="1" precision="FP16">
<dim>1</dim>
<dim>192</dim>
<dim>64</dim>
<dim>64</dim>
</port>
</output>
</layer>
<layer id="314" name="24352439_const" type="Const" version="opset1">
<data element_type="f16" offset="0" shape="" size="2"/>
<output>
<port id="1" precision="FP16"/>
</output>
</layer>
<layer id="315" name="24362440_const" type="Const" version="opset1">
<data element_type="f16" offset="58947" shape="" size="2"/>
<output>
<port id="1" precision="FP16"/>
</output>
</layer>
<layer id="316" name="24372441_const" type="Const" version="opset1">
<data element_type="f16" offset="0" shape="" size="2"/>
<output>
<port id="1" precision="FP16"/>
</output>
</layer>
<layer id="317" name="24382442_const" type="Const" version="opset1">
<data element_type="f16" offset="58947" shape="" size="2"/>
<output>
<port id="1" precision="FP16"/>
</output>
</layer>
<layer id="318" name="440/fq_input_0" type="FakeQuantize" version="opset1">
<data levels="256"/>
<input>
<port id="0">
<dim>1</dim>
<dim>192</dim>
<dim>64</dim>
<dim>64</dim>
</port>
<port id="1"/>
<port id="2"/>
<port id="3"/>
<port id="4"/>
</input>
<output>
<port id="5" precision="FP16">
<dim>1</dim>
<dim>192</dim>
<dim>64</dim>
<dim>64</dim>
</port>
</output>
</layer>
<layer id="319" name="440/fq_weights_1/Convert_to_float/Cast_06545_const" type="Const" version="opset1">
<data element_type="u8" offset="58949" shape="32,192,1,1" size="6144"/>
<output>
<port id="1" precision="U8">
<dim>32</dim>
<dim>192</dim>
<dim>1</dim>
<dim>1</dim>
</port>
</output>
</layer>
<layer id="320" name="440/fq_weights_1/Convert_to_float" type="Convert" version="opset1">
<data destination_type="f16"/>
<input>
<port id="0">
<dim>32</dim>
<dim>192</dim>
<dim>1</dim>
<dim>1</dim>
</port>
</input>
<output>
<port id="1" precision="FP16">
<dim>32</dim>
<dim>192</dim>
<dim>1</dim>
<dim>1</dim>
</port>
</output>
</layer>
<layer id="321" name="440/fq_weights_1/Copy/out_low5725_const" type="Const" version="opset1">
<data element_type="f16" offset="0" shape="1" size="2"/>
<output>
<port id="1" precision="FP16">
<dim>1</dim>
</port>
</output>
</layer>
<layer id="322" name="440/fq_weights_1/Copy/out_high5726_const" type="Const" version="opset1">
<data element_type="f16" offset="5" shape="1" size="2"/>
<output>
<port id="1" precision="FP16">
<dim>1</dim>
</port>
</output>
</layer>
<layer id="323" name="24472451_const" type="Const" version="opset1">
<data element_type="f16" offset="65093" shape="32,1,1,1" size="64"/>
<output>
<port id="1" precision="FP16">
<dim>32</dim>
<dim>1</dim>
<dim>1</dim>
<dim>1</dim>
</port>
</output>
</layer>
<layer id="324" name="24482452_const" type="Const" version="opset1">
<data element_type="f16" offset="65157" shape="32,1,1,1" size="64"/>
<output>
<port id="1" precision="FP16">
<dim>32</dim>
<dim>1</dim>
<dim>1</dim>
<dim>1</dim>
</port>
</output>
</layer>
<layer id="325" name="440/fq_weights_1" type="FakeQuantize" version="opset1">
<data levels="255"/>
<input>
<port id="0">
<dim>32</dim>
<dim>192</dim>
<dim>1</dim>
<dim>1</dim>
</port>
<port id="1">
<dim>1</dim>
</port>
<port id="2">
<dim>1</dim>
</port>
<port id="3">
<dim>32</dim>
<dim>1</dim>
<dim>1</dim>
<dim>1</dim>
</port>
<port id="4">
<dim>32</dim>
<dim>1</dim>
<dim>1</dim>
<dim>1</dim>
</port>
</input>
<output>
<port id="5" precision="FP16">
<dim>32</dim>
<dim>192</dim>
<dim>1</dim>
<dim>1</dim>
</port>
</output>
</layer>
<layer id="326" name="440" type="Convolution" version="opset1">
<data dilations="1,1" output_padding="0,0" pads_begin="0,0" pads_end="0,0" strides="1,1"/>
<input>
<port id="0">
<dim>1</dim>
<dim>192</dim>
<dim>64</dim>
<dim>64</dim>
</port>
<port id="1">
<dim>32</dim>
<dim>192</dim>
<dim>1</dim>
<dim>1</dim>
</port>
</input>
<output>
<port id="2" precision="FP16">
<dim>1</dim>
<dim>32</dim>
<dim>64</dim>
<dim>64</dim>
</port>
</output>
</layer>
<layer id="327" name="data_add_1165211657/copy_const498_const" type="Const" version="opset1">
<data element_type="f16" offset="65221" shape="1,32,1,1" size="64"/>
<output>
<port id="1" precision="FP16">
<dim>1</dim>
<dim>32</dim>
<dim>1</dim>
<dim>1</dim>
</port>
</output>
</layer>
<layer id="328" name="441/variance/Fused_Add_" type="Add" version="opset1">
<input>
<port id="0">
<dim>1</dim>
<dim>32</dim>
<dim>64</dim>
<dim>64</dim>
</port>
<port id="1">
<dim>1</dim>
<dim>32</dim>
<dim>1</dim>
<dim>1</dim>
</port>
</input>
<output>
<port id="2" precision="FP16">
<dim>1</dim>
<dim>32</dim>
<dim>64</dim>
<dim>64</dim>
</port>
</output>
</layer>
<layer id="329" name="21652169_const" type="Const" version="opset1">
<data element_type="f16" offset="65285" shape="" size="2"/>
<output>
<port id="1" precision="FP16"/>
</output>
</layer>
<layer id="330" name="21662170_const" type="Const" version="opset1">
<data element_type="f16" offset="65287" shape="" size="2"/>
<output>
<port id="1" precision="FP16"/>
</output>
</layer>
<layer id="331" name="21672171_const" type="Const" version="opset1">
<data element_type="f16" offset="65285" shape="" size="2"/>
<output>
<port id="1" precision="FP16"/>
</output>
</layer>
<layer id="332" name="21682172_const" type="Const" version="opset1">
<data element_type="f16" offset="65287" shape="" size="2"/>
<output>
<port id="1" precision="FP16"/>
</output>
</layer>
<layer id="333" name="442/fq_input_1" type="FakeQuantize" version="opset1">
<data levels="256"/>
<input>
<port id="0">
<dim>1</dim>
<dim>32</dim>
<dim>64</dim>
<dim>64</dim>
</port>
<port id="1"/>
<port id="2"/>
<port id="3"/>
<port id="4"/>
</input>
<output>
<port id="5" precision="FP16">
<dim>1</dim>
<dim>32</dim>
<dim>64</dim>
<dim>64</dim>
</port>
</output>
</layer>
<layer id="334" name="442" type="Add" version="opset1">
<input>
<port id="0">
<dim>1</dim>
<dim>32</dim>
<dim>64</dim>
<dim>64</dim>
</port>
<port id="1">
<dim>1</dim>
<dim>32</dim>
<dim>64</dim>
<dim>64</dim>
</port>
</input>
<output>
<port id="2" precision="FP16">
<dim>1</dim>
<dim>32</dim>
<dim>64</dim>
<dim>64</dim>
</port>
</output>
</layer>
<layer id="335" name="16751679_const" type="Const" version="opset1">
<data element_type="f16" offset="65289" shape="" size="2"/>
<output>
<port id="1" precision="FP16"/>
</output>
</layer>
<layer id="336" name="16761680_const" type="Const" version="opset1">
<data element_type="f16" offset="65291" shape="" size="2"/>
<output>
<port id="1" precision="FP16"/>
</output>
</layer>
<layer id="337" name="16771681_const" type="Const" version="opset1">
<data element_type="f16" offset="65289" shape="" size="2"/>
<output>
<port id="1" precision="FP16"/>
</output>
</layer>
<layer id="338" name="16781682_const" type="Const" version="opset1">
<data element_type="f16" offset="65291" shape="" size="2"/>
<output>
<port id="1" precision="FP16"/>
</output>
</layer>
<layer id="339" name="443/fq_input_0" type="FakeQuantize" version="opset1">
<data levels="256"/>
<input>
<port id="0">
<dim>1</dim>
<dim>32</dim>
<dim>64</dim>
<dim>64</dim>
</port>
<port id="1"/>
<port id="2"/>
<port id="3"/>
<port id="4"/>
</input>
<output>
<port id="5" precision="FP16">
<dim>1</dim>
<dim>32</dim>
<dim>64</dim>
<dim>64</dim>
</port>
</output>
</layer>
<layer id="340" name="443/fq_weights_1/Convert_to_float/Cast_06593_const" type="Const" version="opset1">
<data element_type="u8" offset="65293" shape="192,32,1,1" size="6144"/>
<output>
<port id="1" precision="U8">
<dim>192</dim>
<dim>32</dim>
<dim>1</dim>
<dim>1</dim>
</port>
</output>
</layer>
<layer id="341" name="443/fq_weights_1/Convert_to_float" type="Convert" version="opset1">
<data destination_type="f16"/>
<input>
<port id="0">
<dim>192</dim>
<dim>32</dim>
<dim>1</dim>
<dim>1</dim>
</port>
</input>
<output>
<port id="1" precision="FP16">
<dim>192</dim>
<dim>32</dim>
<dim>1</dim>
<dim>1</dim>
</port>
</output>
</layer>
<layer id="342" name="443/fq_weights_1/Copy/out_low5309_const" type="Const" version="opset1">
<data element_type="f16" offset="0" shape="1" size="2"/>
<output>
<port id="1" precision="FP16">
<dim>1</dim>
</port>
</output>
</layer>
<layer id="343" name="443/fq_weights_1/Copy/out_high5310_const" type="Const" version="opset1">
<data element_type="f16" offset="5" shape="1" size="2"/>
<output>
<port id="1" precision="FP16">
<dim>1</dim>
</port>
</output>
</layer>
<layer id="344" name="16871691_const" type="Const" version="opset1">
<data element_type="f16" offset="71437" shape="192,1,1,1" size="384"/>
<output>
<port id="1" precision="FP16">
<dim>192</dim>
<dim>1</dim>
<dim>1</dim>
<dim>1</dim>
</port>
</output>
</layer>
<layer id="345" name="16881692_const" type="Const" version="opset1">
<data element_type="f16" offset="71821" shape="192,1,1,1" size="384"/>
<output>
<port id="1" precision="FP16">
<dim>192</dim>
<dim>1</dim>
<dim>1</dim>
<dim>1</dim>
</port>
</output>
</layer>
<layer id="346" name="443/fq_weights_1" type="FakeQuantize" version="opset1">
<data levels="255"/>
<input>
<port id="0">
<dim>192</dim>
<dim>32</dim>
<dim>1</dim>
<dim>1</dim>
</port>
<port id="1">
<dim>1</dim>
</port>
<port id="2">
<dim>1</dim>
</port>
<port id="3">
<dim>192</dim>
<dim>1</dim>
<dim>1</dim>
<dim>1</dim>
</port>
<port id="4">
<dim>192</dim>
<dim>1</dim>
<dim>1</dim>
<dim>1</dim>
</port>
</input>
<output>
<port id="5" precision="FP16">
<dim>192</dim>
<dim>32</dim>
<dim>1</dim>
<dim>1</dim>
</port>
</output>
</layer>
<layer id="347" name="443" type="Convolution" version="opset1">
<data dilations="1,1" output_padding="0,0" pads_begin="0,0" pads_end="0,0" strides="1,1"/>
<input>
<port id="0">
<dim>1</dim>
<dim>32</dim>
<dim>64</dim>
<dim>64</dim>
</port>
<port id="1">
<dim>192</dim>
<dim>32</dim>
<dim>1</dim>
<dim>1</dim>
</port>
</input>
<output>
<port id="2" precision="FP16">
<dim>1</dim>
<dim>192</dim>
<dim>64</dim>
<dim>64</dim>
</port>
</output>
</layer>
<layer id="348" name="data_add_1166011665/copy_const503_const" type="Const" version="opset1">
<data element_type="f16" offset="72205" shape="1,192,1,1" size="384"/>
<output>
<port id="1" precision="FP16">
<dim>1</dim>
<dim>192</dim>
<dim>1</dim>
<dim>1</dim>
</port>
</output>
</layer>
<layer id="349" name="444/variance/Fused_Add_" type="Add" version="opset1">
<input>
<port id="0">
<dim>1</dim>
<dim>192</dim>
<dim>64</dim>
<dim>64</dim>
</port>
<port id="1">
<dim>1</dim>
<dim>192</dim>
<dim>1</dim>
<dim>1</dim>
</port>
</input>
<output>
<port id="2" precision="FP16">
<dim>1</dim>
<dim>192</dim>
<dim>64</dim>
<dim>64</dim>
</port>
</output>
</layer>
<layer id="350" name="445" type="ReLU" version="opset1">
<input>
<port id="0">
<dim>1</dim>
<dim>192</dim>
<dim>64</dim>
<dim>64</dim>
</port>
</input>
<output>
<port id="1" precision="FP16">
<dim>1</dim>
<dim>192</dim>
<dim>64</dim>
<dim>64</dim>
</port>
</output>
</layer>
<layer id="351" name="27852789_const" type="Const" version="opset1">
<data element_type="f16" offset="38353" shape="1,192,1,1" size="384"/>
<output>
<port id="1" precision="FP16">
<dim>1</dim>
<dim>192</dim>
<dim>1</dim>
<dim>1</dim>
</port>
</output>
</layer>
<layer id="352" name="27862790_const" type="Const" version="opset1">
<data element_type="f16" offset="72589" shape="1,192,1,1" size="384"/>
<output>
<port id="1" precision="FP16">
<dim>1</dim>
<dim>192</dim>
<dim>1</dim>
<dim>1</dim>
</port>
</output>
</layer>
<layer id="353" name="27872791_const" type="Const" version="opset1">
<data element_type="f16" offset="38353" shape="1,192,1,1" size="384"/>
<output>
<port id="1" precision="FP16">
<dim>1</dim>
<dim>192</dim>
<dim>1</dim>
<dim>1</dim>
</port>
</output>
</layer>
<layer id="354" name="27882792_const" type="Const" version="opset1">
<data element_type="f16" offset="72589" shape="1,192,1,1" size="384"/>
<output>
<port id="1" precision="FP16">
<dim>1</dim>
<dim>192</dim>
<dim>1</dim>
<dim>1</dim>
</port>
</output>
</layer>
<layer id="355" name="446/fq_input_0" type="FakeQuantize" version="opset1">
<data levels="256"/>
<input>
<port id="0">
<dim>1</dim>
<dim>192</dim>
<dim>64</dim>
<dim>64</dim>
</port>
<port id="1">
<dim>1</dim>
<dim>192</dim>
<dim>1</dim>
<dim>1</dim>
</port>
<port id="2">
<dim>1</dim>
<dim>192</dim>
<dim>1</dim>
<dim>1</dim>
</port>
<port id="3">
<dim>1</dim>
<dim>192</dim>
<dim>1</dim>
<dim>1</dim>
</port>
<port id="4">
<dim>1</dim>
<dim>192</dim>
<dim>1</dim>
<dim>1</dim>
</port>
</input>
<output>
<port id="5" precision="FP16">
<dim>1</dim>
<dim>192</dim>
<dim>64</dim>
<dim>64</dim>
</port>
</output>
</layer>
<layer id="356" name="446/fq_weights_1/Convert_to_float/Cast_06695_const" type="Const" version="opset1">
<data element_type="u8" offset="72973" shape="192,1,3,3" size="1728"/>
<output>
<port id="1" precision="U8">
<dim>192</dim>
<dim>1</dim>
<dim>3</dim>
<dim>3</dim>
</port>
</output>
</layer>
<layer id="357" name="446/fq_weights_1/Convert_to_float" type="Convert" version="opset1">
<data destination_type="f16"/>
<input>
<port id="0">
<dim>192</dim>
<dim>1</dim>
<dim>3</dim>
<dim>3</dim>
</port>
</input>
<output>
<port id="1" precision="FP16">
<dim>192</dim>
<dim>1</dim>
<dim>3</dim>
<dim>3</dim>
</port>
</output>
</layer>
<layer id="358" name="446/fq_weights_1/Copy/out_low5333_const" type="Const" version="opset1">
<data element_type="f16" offset="0" shape="1" size="2"/>
<output>
<port id="1" precision="FP16">
<dim>1</dim>
</port>
</output>
</layer>
<layer id="359" name="446/fq_weights_1/Copy/out_high5334_const" type="Const" version="opset1">
<data element_type="f16" offset="5" shape="1" size="2"/>
<output>
<port id="1" precision="FP16">
<dim>1</dim>
</port>
</output>
</layer>
<layer id="360" name="27972801_const" type="Const" version="opset1">
<data element_type="f16" offset="74701" shape="192,1,1,1" size="384"/>
<output>
<port id="1" precision="FP16">
<dim>192</dim>
<dim>1</dim>
<dim>1</dim>
<dim>1</dim>
</port>
</output>
</layer>
<layer id="361" name="27982802_const" type="Const" version="opset1">
<data element_type="f16" offset="75085" shape="192,1,1,1" size="384"/>
<output>
<port id="1" precision="FP16">
<dim>192</dim>
<dim>1</dim>
<dim>1</dim>
<dim>1</dim>
</port>
</output>
</layer>
<layer id="362" name="446/fq_weights_1" type="FakeQuantize" version="opset1">
<data levels="255"/>
<input>
<port id="0">
<dim>192</dim>
<dim>1</dim>
<dim>3</dim>
<dim>3</dim>
</port>
<port id="1">
<dim>1</dim>
</port>
<port id="2">
<dim>1</dim>
</port>
<port id="3">
<dim>192</dim>
<dim>1</dim>
<dim>1</dim>
<dim>1</dim>
</port>
<port id="4">
<dim>192</dim>
<dim>1</dim>
<dim>1</dim>
<dim>1</dim>
</port>
</input>
<output>
<port id="5" precision="FP16">
<dim>192</dim>
<dim>1</dim>
<dim>3</dim>
<dim>3</dim>
</port>
</output>
</layer>
<layer id="363" name="7514/value7516_const" type="Const" version="opset1">
<data element_type="i64" offset="41617" shape="5" size="40"/>
<output>
<port id="1" precision="I64">
<dim>5</dim>
</port>
</output>
</layer>
<layer id="364" name="7514" type="Reshape" version="opset1">
<data special_zero="True"/>
<input>
<port id="0">
<dim>192</dim>
<dim>1</dim>
<dim>3</dim>
<dim>3</dim>
</port>
<port id="1">
<dim>5</dim>
</port>
</input>
<output>
<port id="2" precision="FP16">
<dim>192</dim>
<dim>1</dim>
<dim>1</dim>
<dim>3</dim>
<dim>3</dim>
</port>
</output>
</layer>
<layer id="365" name="446" type="GroupConvolution" version="opset1">
<data dilations="1,1" output_padding="0,0" pads_begin="1,1" pads_end="1,1" strides="2,2"/>
<input>
<port id="0">
<dim>1</dim>
<dim>192</dim>
<dim>64</dim>
<dim>64</dim>
</port>
<port id="1">
<dim>192</dim>
<dim>1</dim>
<dim>1</dim>
<dim>3</dim>
<dim>3</dim>
</port>
</input>
<output>
<port id="2" precision="FP16">
<dim>1</dim>
<dim>192</dim>
<dim>32</dim>
<dim>32</dim>
</port>
</output>
</layer>
<layer id="366" name="data_add_1166811673/copy_const508_const" type="Const" version="opset1">
<data element_type="f16" offset="75469" shape="1,192,1,1" size="384"/>
<output>
<port id="1" precision="FP16">
<dim>1</dim>
<dim>192</dim>
<dim>1</dim>
<dim>1</dim>
</port>
</output>
</layer>
<layer id="367" name="447/variance/Fused_Add_" type="Add" version="opset1">
<input>
<port id="0">
<dim>1</dim>
<dim>192</dim>
<dim>32</dim>
<dim>32</dim>
</port>
<port id="1">
<dim>1</dim>
<dim>192</dim>
<dim>1</dim>
<dim>1</dim>
</port>
</input>
<output>
<port id="2" precision="FP16">
<dim>1</dim>
<dim>192</dim>
<dim>32</dim>
<dim>32</dim>
</port>
</output>
</layer>
<layer id="368" name="448" type="ReLU" version="opset1">
<input>
<port id="0">
<dim>1</dim>
<dim>192</dim>
<dim>32</dim>
<dim>32</dim>
</port>
</input>
<output>
<port id="1" precision="FP16">
<dim>1</dim>
<dim>192</dim>
<dim>32</dim>
<dim>32</dim>
</port>
</output>
</layer>
<layer id="369" name="14151419_const" type="Const" version="opset1">
<data element_type="f16" offset="0" shape="" size="2"/>
<output>
<port id="1" precision="FP16"/>
</output>
</layer>
<layer id="370" name="14161420_const" type="Const" version="opset1">
<data element_type="f16" offset="75853" shape="" size="2"/>
<output>
<port id="1" precision="FP16"/>
</output>
</layer>
<layer id="371" name="14171421_const" type="Const" version="opset1">
<data element_type="f16" offset="0" shape="" size="2"/>
<output>
<port id="1" precision="FP16"/>
</output>
</layer>
<layer id="372" name="14181422_const" type="Const" version="opset1">
<data element_type="f16" offset="75853" shape="" size="2"/>
<output>
<port id="1" precision="FP16"/>
</output>
</layer>
<layer id="373" name="449/fq_input_0" type="FakeQuantize" version="opset1">
<data levels="256"/>
<input>
<port id="0">
<dim>1</dim>
<dim>192</dim>
<dim>32</dim>
<dim>32</dim>
</port>
<port id="1"/>
<port id="2"/>
<port id="3"/>
<port id="4"/>
</input>
<output>
<port id="5" precision="FP16">
<dim>1</dim>
<dim>192</dim>
<dim>32</dim>
<dim>32</dim>
</port>
</output>
</layer>
<layer id="374" name="449/fq_weights_1/Convert_to_float/Cast_06701_const" type="Const" version="opset1">
<data element_type="u8" offset="75855" shape="64,192,1,1" size="12288"/>
<output>
<port id="1" precision="U8">
<dim>64</dim>
<dim>192</dim>
<dim>1</dim>
<dim>1</dim>
</port>
</output>
</layer>
<layer id="375" name="449/fq_weights_1/Convert_to_float" type="Convert" version="opset1">
<data destination_type="f16"/>
<input>
<port id="0">
<dim>64</dim>
<dim>192</dim>
<dim>1</dim>
<dim>1</dim>
</port>
</input>
<output>
<port id="1" precision="FP16">
<dim>64</dim>
<dim>192</dim>
<dim>1</dim>
<dim>1</dim>
</port>
</output>
</layer>
<layer id="376" name="449/fq_weights_1/Copy/out_low5485_const" type="Const" version="opset1">
<data element_type="f16" offset="0" shape="1" size="2"/>
<output>
<port id="1" precision="FP16">
<dim>1</dim>
</port>
</output>
</layer>
<layer id="377" name="449/fq_weights_1/Copy/out_high5486_const" type="Const" version="opset1">
<data element_type="f16" offset="5" shape="1" size="2"/>
<output>
<port id="1" precision="FP16">
<dim>1</dim>
</port>
</output>
</layer>
<layer id="378" name="14271431_const" type="Const" version="opset1">
<data element_type="f16" offset="88143" shape="64,1,1,1" size="128"/>
<output>
<port id="1" precision="FP16">
<dim>64</dim>
<dim>1</dim>
<dim>1</dim>
<dim>1</dim>
</port>
</output>
</layer>
<layer id="379" name="14281432_const" type="Const" version="opset1">
<data element_type="f16" offset="88271" shape="64,1,1,1" size="128"/>
<output>
<port id="1" precision="FP16">
<dim>64</dim>
<dim>1</dim>
<dim>1</dim>
<dim>1</dim>
</port>
</output>
</layer>
<layer id="380" name="449/fq_weights_1" type="FakeQuantize" version="opset1">
<data levels="255"/>
<input>
<port id="0">
<dim>64</dim>
<dim>192</dim>
<dim>1</dim>
<dim>1</dim>
</port>
<port id="1">
<dim>1</dim>
</port>
<port id="2">
<dim>1</dim>
</port>
<port id="3">
<dim>64</dim>
<dim>1</dim>
<dim>1</dim>
<dim>1</dim>
</port>
<port id="4">
<dim>64</dim>
<dim>1</dim>
<dim>1</dim>
<dim>1</dim>
</port>
</input>
<output>
<port id="5" precision="FP16">
<dim>64</dim>
<dim>192</dim>
<dim>1</dim>
<dim>1</dim>
</port>
</output>
</layer>
<layer id="381" name="449" type="Convolution" version="opset1">
<data dilations="1,1" output_padding="0,0" pads_begin="0,0" pads_end="0,0" strides="1,1"/>
<input>
<port id="0">
<dim>1</dim>
<dim>192</dim>
<dim>32</dim>
<dim>32</dim>
</port>
<port id="1">
<dim>64</dim>
<dim>192</dim>
<dim>1</dim>
<dim>1</dim>
</port>
</input>
<output>
<port id="2" precision="FP16">
<dim>1</dim>
<dim>64</dim>
<dim>32</dim>
<dim>32</dim>
</port>
</output>
</layer>
<layer id="382" name="data_add_1167611681/copy_const513_const" type="Const" version="opset1">
<data element_type="f16" offset="88399" shape="1,64,1,1" size="128"/>
<output>
<port id="1" precision="FP16">
<dim>1</dim>
<dim>64</dim>
<dim>1</dim>
<dim>1</dim>
</port>
</output>
</layer>
<layer id="383" name="450/variance/Fused_Add_" type="Add" version="opset1">
<input>
<port id="0">
<dim>1</dim>
<dim>64</dim>
<dim>32</dim>
<dim>32</dim>
</port>
<port id="1">
<dim>1</dim>
<dim>64</dim>
<dim>1</dim>
<dim>1</dim>
</port>
</input>
<output>
<port id="2" precision="FP16">
<dim>1</dim>
<dim>64</dim>
<dim>32</dim>
<dim>32</dim>
</port>
</output>
</layer>
<layer id="384" name="15151519_const" type="Const" version="opset1">
<data element_type="f16" offset="88527" shape="" size="2"/>
<output>
<port id="1" precision="FP16"/>
</output>
</layer>
<layer id="385" name="15161520_const" type="Const" version="opset1">
<data element_type="f16" offset="88529" shape="" size="2"/>
<output>
<port id="1" precision="FP16"/>
</output>
</layer>
<layer id="386" name="15171521_const" type="Const" version="opset1">
<data element_type="f16" offset="88527" shape="" size="2"/>
<output>
<port id="1" precision="FP16"/>
</output>
</layer>
<layer id="387" name="15181522_const" type="Const" version="opset1">
<data element_type="f16" offset="88529" shape="" size="2"/>
<output>
<port id="1" precision="FP16"/>
</output>
</layer>
<layer id="388" name="451/fq_input_0" type="FakeQuantize" version="opset1">
<data levels="256"/>
<input>
<port id="0">
<dim>1</dim>
<dim>64</dim>
<dim>32</dim>
<dim>32</dim>
</port>
<port id="1"/>
<port id="2"/>
<port id="3"/>
<port id="4"/>
</input>
<output>
<port id="5" precision="FP16">
<dim>1</dim>
<dim>64</dim>
<dim>32</dim>
<dim>32</dim>
</port>
</output>
</layer>
<layer id="389" name="451/fq_weights_1/Convert_to_float/Cast_06615_const" type="Const" version="opset1">
<data element_type="u8" offset="88531" shape="384,64,1,1" size="24576"/>
<output>
<port id="1" precision="U8">
<dim>384</dim>
<dim>64</dim>
<dim>1</dim>
<dim>1</dim>
</port>
</output>
</layer>
<layer id="390" name="451/fq_weights_1/Convert_to_float" type="Convert" version="opset1">
<data destination_type="f16"/>
<input>
<port id="0">
<dim>384</dim>
<dim>64</dim>
<dim>1</dim>
<dim>1</dim>
</port>
</input>
<output>
<port id="1" precision="FP16">
<dim>384</dim>
<dim>64</dim>
<dim>1</dim>
<dim>1</dim>
</port>
</output>
</layer>
<layer id="391" name="451/fq_weights_1/Copy/out_low5301_const" type="Const" version="opset1">
<data element_type="f16" offset="0" shape="1" size="2"/>
<output>
<port id="1" precision="FP16">
<dim>1</dim>
</port>
</output>
</layer>
<layer id="392" name="451/fq_weights_1/Copy/out_high5302_const" type="Const" version="opset1">
<data element_type="f16" offset="5" shape="1" size="2"/>
<output>
<port id="1" precision="FP16">
<dim>1</dim>
</port>
</output>
</layer>
<layer id="393" name="15271531_const" type="Const" version="opset1">
<data element_type="f16" offset="113107" shape="384,1,1,1" size="768"/>
<output>
<port id="1" precision="FP16">
<dim>384</dim>
<dim>1</dim>
<dim>1</dim>
<dim>1</dim>
</port>
</output>
</layer>
<layer id="394" name="15281532_const" type="Const" version="opset1">
<data element_type="f16" offset="113875" shape="384,1,1,1" size="768"/>
<output>
<port id="1" precision="FP16">
<dim>384</dim>
<dim>1</dim>
<dim>1</dim>
<dim>1</dim>
</port>
</output>
</layer>
<layer id="395" name="451/fq_weights_1" type="FakeQuantize" version="opset1">
<data levels="255"/>
<input>
<port id="0">
<dim>384</dim>
<dim>64</dim>
<dim>1</dim>
<dim>1</dim>
</port>
<port id="1">
<dim>1</dim>
</port>
<port id="2">
<dim>1</dim>
</port>
<port id="3">
<dim>384</dim>
<dim>1</dim>
<dim>1</dim>
<dim>1</dim>
</port>
<port id="4">
<dim>384</dim>
<dim>1</dim>
<dim>1</dim>
<dim>1</dim>
</port>
</input>
<output>
<port id="5" precision="FP16">
<dim>384</dim>
<dim>64</dim>
<dim>1</dim>
<dim>1</dim>
</port>
</output>
</layer>
<layer id="396" name="451" type="Convolution" version="opset1">
<data dilations="1,1" output_padding="0,0" pads_begin="0,0" pads_end="0,0" strides="1,1"/>
<input>
<port id="0">
<dim>1</dim>
<dim>64</dim>
<dim>32</dim>
<dim>32</dim>
</port>
<port id="1">
<dim>384</dim>
<dim>64</dim>
<dim>1</dim>
<dim>1</dim>
</port>
</input>
<output>
<port id="2" precision="FP16">
<dim>1</dim>
<dim>384</dim>
<dim>32</dim>
<dim>32</dim>
</port>
</output>
</layer>
<layer id="397" name="data_add_1168411689/copy_const517_const" type="Const" version="opset1">
<data element_type="f16" offset="114643" shape="1,384,1,1" size="768"/>
<output>
<port id="1" precision="FP16">
<dim>1</dim>
<dim>384</dim>
<dim>1</dim>
<dim>1</dim>
</port>
</output>
</layer>
<layer id="398" name="452/variance/Fused_Add_" type="Add" version="opset1">
<input>
<port id="0">
<dim>1</dim>
<dim>384</dim>
<dim>32</dim>
<dim>32</dim>
</port>
<port id="1">
<dim>1</dim>
<dim>384</dim>
<dim>1</dim>
<dim>1</dim>
</port>
</input>
<output>
<port id="2" precision="FP16">
<dim>1</dim>
<dim>384</dim>
<dim>32</dim>
<dim>32</dim>
</port>
</output>
</layer>
<layer id="399" name="453" type="ReLU" version="opset1">
<input>
<port id="0">
<dim>1</dim>
<dim>384</dim>
<dim>32</dim>
<dim>32</dim>
</port>
</input>
<output>
<port id="1" precision="FP16">
<dim>1</dim>
<dim>384</dim>
<dim>32</dim>
<dim>32</dim>
</port>
</output>
</layer>
<layer id="400" name="20752079_const" type="Const" version="opset1">
<data element_type="f16" offset="115411" shape="1,384,1,1" size="768"/>
<output>
<port id="1" precision="FP16">
<dim>1</dim>
<dim>384</dim>
<dim>1</dim>
<dim>1</dim>
</port>
</output>
</layer>
<layer id="401" name="20762080_const" type="Const" version="opset1">
<data element_type="f16" offset="116179" shape="1,384,1,1" size="768"/>
<output>
<port id="1" precision="FP16">
<dim>1</dim>
<dim>384</dim>
<dim>1</dim>
<dim>1</dim>
</port>
</output>
</layer>
<layer id="402" name="20772081_const" type="Const" version="opset1">
<data element_type="f16" offset="115411" shape="1,384,1,1" size="768"/>
<output>
<port id="1" precision="FP16">
<dim>1</dim>
<dim>384</dim>
<dim>1</dim>
<dim>1</dim>
</port>
</output>
</layer>
<layer id="403" name="20782082_const" type="Const" version="opset1">
<data element_type="f16" offset="116179" shape="1,384,1,1" size="768"/>
<output>
<port id="1" precision="FP16">
<dim>1</dim>
<dim>384</dim>
<dim>1</dim>
<dim>1</dim>
</port>
</output>
</layer>
<layer id="404" name="454/fq_input_0" type="FakeQuantize" version="opset1">
<data levels="256"/>
<input>
<port id="0">
<dim>1</dim>
<dim>384</dim>
<dim>32</dim>
<dim>32</dim>
</port>
<port id="1">
<dim>1</dim>
<dim>384</dim>
<dim>1</dim>
<dim>1</dim>
</port>
<port id="2">
<dim>1</dim>
<dim>384</dim>
<dim>1</dim>
<dim>1</dim>
</port>
<port id="3">
<dim>1</dim>
<dim>384</dim>
<dim>1</dim>
<dim>1</dim>
</port>
<port id="4">
<dim>1</dim>
<dim>384</dim>
<dim>1</dim>
<dim>1</dim>
</port>
</input>
<output>
<port id="5" precision="FP16">
<dim>1</dim>
<dim>384</dim>
<dim>32</dim>
<dim>32</dim>
</port>
</output>
</layer>
<layer id="405" name="454/fq_weights_1/Convert_to_float/Cast_06555_const" type="Const" version="opset1">
<data element_type="u8" offset="116947" shape="384,1,3,3" size="3456"/>
<output>
<port id="1" precision="U8">
<dim>384</dim>
<dim>1</dim>
<dim>3</dim>
<dim>3</dim>
</port>
</output>
</layer>
<layer id="406" name="454/fq_weights_1/Convert_to_float" type="Convert" version="opset1">
<data destination_type="f16"/>
<input>
<port id="0">
<dim>384</dim>
<dim>1</dim>
<dim>3</dim>
<dim>3</dim>
</port>
</input>
<output>
<port id="1" precision="FP16">
<dim>384</dim>
<dim>1</dim>
<dim>3</dim>
<dim>3</dim>
</port>
</output>
</layer>
<layer id="407" name="454/fq_weights_1/Copy/out_low5525_const" type="Const" version="opset1">
<data element_type="f16" offset="0" shape="1" size="2"/>
<output>
<port id="1" precision="FP16">
<dim>1</dim>
</port>
</output>
</layer>
<layer id="408" name="454/fq_weights_1/Copy/out_high5526_const" type="Const" version="opset1">
<data element_type="f16" offset="5" shape="1" size="2"/>
<output>
<port id="1" precision="FP16">
<dim>1</dim>
</port>
</output>
</layer>
<layer id="409" name="20872091_const" type="Const" version="opset1">
<data element_type="f16" offset="120403" shape="384,1,1,1" size="768"/>
<output>
<port id="1" precision="FP16">
<dim>384</dim>
<dim>1</dim>
<dim>1</dim>
<dim>1</dim>
</port>
</output>
</layer>
<layer id="410" name="20882092_const" type="Const" version="opset1">
<data element_type="f16" offset="121171" shape="384,1,1,1" size="768"/>
<output>
<port id="1" precision="FP16">
<dim>384</dim>
<dim>1</dim>
<dim>1</dim>
<dim>1</dim>
</port>
</output>
</layer>
<layer id="411" name="454/fq_weights_1" type="FakeQuantize" version="opset1">
<data levels="255"/>
<input>
<port id="0">
<dim>384</dim>
<dim>1</dim>
<dim>3</dim>
<dim>3</dim>
</port>
<port id="1">
<dim>1</dim>
</port>
<port id="2">
<dim>1</dim>
</port>
<port id="3">
<dim>384</dim>
<dim>1</dim>
<dim>1</dim>
<dim>1</dim>
</port>
<port id="4">
<dim>384</dim>
<dim>1</dim>
<dim>1</dim>
<dim>1</dim>
</port>
</input>
<output>
<port id="5" precision="FP16">
<dim>384</dim>
<dim>1</dim>
<dim>3</dim>
<dim>3</dim>
</port>
</output>
</layer>
<layer id="412" name="7498/value7500_const" type="Const" version="opset1">
<data element_type="i64" offset="121939" shape="5" size="40"/>
<output>
<port id="1" precision="I64">
<dim>5</dim>
</port>
</output>
</layer>
<layer id="413" name="7498" type="Reshape" version="opset1">
<data special_zero="True"/>
<input>
<port id="0">
<dim>384</dim>
<dim>1</dim>
<dim>3</dim>
<dim>3</dim>
</port>
<port id="1">
<dim>5</dim>
</port>
</input>
<output>
<port id="2" precision="FP16">
<dim>384</dim>
<dim>1</dim>
<dim>1</dim>
<dim>3</dim>
<dim>3</dim>
</port>
</output>
</layer>
<layer id="414" name="454" type="GroupConvolution" version="opset1">
<data dilations="1,1" output_padding="0,0" pads_begin="1,1" pads_end="1,1" strides="1,1"/>
<input>
<port id="0">
<dim>1</dim>
<dim>384</dim>
<dim>32</dim>
<dim>32</dim>
</port>
<port id="1">
<dim>384</dim>
<dim>1</dim>
<dim>1</dim>
<dim>3</dim>
<dim>3</dim>
</port>
</input>
<output>
<port id="2" precision="FP16">
<dim>1</dim>
<dim>384</dim>
<dim>32</dim>
<dim>32</dim>
</port>
</output>
</layer>
<layer id="415" name="data_add_1169211697/copy_const522_const" type="Const" version="opset1">
<data element_type="f16" offset="121979" shape="1,384,1,1" size="768"/>
<output>
<port id="1" precision="FP16">
<dim>1</dim>
<dim>384</dim>
<dim>1</dim>
<dim>1</dim>
</port>
</output>
</layer>
<layer id="416" name="455/variance/Fused_Add_" type="Add" version="opset1">
<input>
<port id="0">
<dim>1</dim>
<dim>384</dim>
<dim>32</dim>
<dim>32</dim>
</port>
<port id="1">
<dim>1</dim>
<dim>384</dim>
<dim>1</dim>
<dim>1</dim>
</port>
</input>
<output>
<port id="2" precision="FP16">
<dim>1</dim>
<dim>384</dim>
<dim>32</dim>
<dim>32</dim>
</port>
</output>
</layer>
<layer id="417" name="456" type="ReLU" version="opset1">
<input>
<port id="0">
<dim>1</dim>
<dim>384</dim>
<dim>32</dim>
<dim>32</dim>
</port>
</input>
<output>
<port id="1" precision="FP16">
<dim>1</dim>
<dim>384</dim>
<dim>32</dim>
<dim>32</dim>
</port>
</output>
</layer>
<layer id="418" name="28052809_const" type="Const" version="opset1">
<data element_type="f16" offset="0" shape="" size="2"/>
<output>
<port id="1" precision="FP16"/>
</output>
</layer>
<layer id="419" name="28062810_const" type="Const" version="opset1">
<data element_type="f16" offset="122747" shape="" size="2"/>
<output>
<port id="1" precision="FP16"/>
</output>
</layer>
<layer id="420" name="28072811_const" type="Const" version="opset1">
<data element_type="f16" offset="0" shape="" size="2"/>
<output>
<port id="1" precision="FP16"/>
</output>
</layer>
<layer id="421" name="28082812_const" type="Const" version="opset1">
<data element_type="f16" offset="122747" shape="" size="2"/>
<output>
<port id="1" precision="FP16"/>
</output>
</layer>
<layer id="422" name="457/fq_input_0" type="FakeQuantize" version="opset1">
<data levels="256"/>
<input>
<port id="0">
<dim>1</dim>
<dim>384</dim>
<dim>32</dim>
<dim>32</dim>
</port>
<port id="1"/>
<port id="2"/>
<port id="3"/>
<port id="4"/>
</input>
<output>
<port id="5" precision="FP16">
<dim>1</dim>
<dim>384</dim>
<dim>32</dim>
<dim>32</dim>
</port>
</output>
</layer>
<layer id="423" name="457/fq_weights_1/Convert_to_float/Cast_06619_const" type="Const" version="opset1">
<data element_type="u8" offset="122749" shape="64,384,1,1" size="24576"/>
<output>
<port id="1" precision="U8">
<dim>64</dim>
<dim>384</dim>
<dim>1</dim>
<dim>1</dim>
</port>
</output>
</layer>
<layer id="424" name="457/fq_weights_1/Convert_to_float" type="Convert" version="opset1">
<data destination_type="f16"/>
<input>
<port id="0">
<dim>64</dim>
<dim>384</dim>
<dim>1</dim>
<dim>1</dim>
</port>
</input>
<output>
<port id="1" precision="FP16">
<dim>64</dim>
<dim>384</dim>
<dim>1</dim>
<dim>1</dim>
</port>
</output>
</layer>
<layer id="425" name="457/fq_weights_1/Copy/out_low5325_const" type="Const" version="opset1">
<data element_type="f16" offset="0" shape="1" size="2"/>
<output>
<port id="1" precision="FP16">
<dim>1</dim>
</port>
</output>
</layer>
<layer id="426" name="457/fq_weights_1/Copy/out_high5326_const" type="Const" version="opset1">
<data element_type="f16" offset="5" shape="1" size="2"/>
<output>
<port id="1" precision="FP16">
<dim>1</dim>
</port>
</output>
</layer>
<layer id="427" name="28172821_const" type="Const" version="opset1">
<data element_type="f16" offset="147325" shape="64,1,1,1" size="128"/>
<output>
<port id="1" precision="FP16">
<dim>64</dim>
<dim>1</dim>
<dim>1</dim>
<dim>1</dim>
</port>
</output>
</layer>
<layer id="428" name="28182822_const" type="Const" version="opset1">
<data element_type="f16" offset="147453" shape="64,1,1,1" size="128"/>
<output>
<port id="1" precision="FP16">
<dim>64</dim>
<dim>1</dim>
<dim>1</dim>
<dim>1</dim>
</port>
</output>
</layer>
<layer id="429" name="457/fq_weights_1" type="FakeQuantize" version="opset1">
<data levels="255"/>
<input>
<port id="0">
<dim>64</dim>
<dim>384</dim>
<dim>1</dim>
<dim>1</dim>
</port>
<port id="1">
<dim>1</dim>
</port>
<port id="2">
<dim>1</dim>
</port>
<port id="3">
<dim>64</dim>
<dim>1</dim>
<dim>1</dim>
<dim>1</dim>
</port>
<port id="4">
<dim>64</dim>
<dim>1</dim>
<dim>1</dim>
<dim>1</dim>
</port>
</input>
<output>
<port id="5" precision="FP16">
<dim>64</dim>
<dim>384</dim>
<dim>1</dim>
<dim>1</dim>
</port>
</output>
</layer>
<layer id="430" name="457" type="Convolution" version="opset1">
<data dilations="1,1" output_padding="0,0" pads_begin="0,0" pads_end="0,0" strides="1,1"/>
<input>
<port id="0">
<dim>1</dim>
<dim>384</dim>
<dim>32</dim>
<dim>32</dim>
</port>
<port id="1">
<dim>64</dim>
<dim>384</dim>
<dim>1</dim>
<dim>1</dim>
</port>
</input>
<output>
<port id="2" precision="FP16">
<dim>1</dim>
<dim>64</dim>
<dim>32</dim>
<dim>32</dim>
</port>
</output>
</layer>
<layer id="431" name="data_add_1170011705/copy_const527_const" type="Const" version="opset1">
<data element_type="f16" offset="147581" shape="1,64,1,1" size="128"/>
<output>
<port id="1" precision="FP16">
<dim>1</dim>
<dim>64</dim>
<dim>1</dim>
<dim>1</dim>
</port>
</output>
</layer>
<layer id="432" name="458/variance/Fused_Add_" type="Add" version="opset1">
<input>
<port id="0">
<dim>1</dim>
<dim>64</dim>
<dim>32</dim>
<dim>32</dim>
</port>
<port id="1">
<dim>1</dim>
<dim>64</dim>
<dim>1</dim>
<dim>1</dim>
</port>
</input>
<output>
<port id="2" precision="FP16">
<dim>1</dim>
<dim>64</dim>
<dim>32</dim>
<dim>32</dim>
</port>
</output>
</layer>
<layer id="433" name="18051809_const" type="Const" version="opset1">
<data element_type="f16" offset="147709" shape="" size="2"/>
<output>
<port id="1" precision="FP16"/>
</output>
</layer>
<layer id="434" name="18061810_const" type="Const" version="opset1">
<data element_type="f16" offset="147711" shape="" size="2"/>
<output>
<port id="1" precision="FP16"/>
</output>
</layer>
<layer id="435" name="18071811_const" type="Const" version="opset1">
<data element_type="f16" offset="147709" shape="" size="2"/>
<output>
<port id="1" precision="FP16"/>
</output>
</layer>
<layer id="436" name="18081812_const" type="Const" version="opset1">
<data element_type="f16" offset="147711" shape="" size="2"/>
<output>
<port id="1" precision="FP16"/>
</output>
</layer>
<layer id="437" name="459/fq_input_1" type="FakeQuantize" version="opset1">
<data levels="256"/>
<input>
<port id="0">
<dim>1</dim>
<dim>64</dim>
<dim>32</dim>
<dim>32</dim>
</port>
<port id="1"/>
<port id="2"/>
<port id="3"/>
<port id="4"/>
</input>
<output>
<port id="5" precision="FP16">
<dim>1</dim>
<dim>64</dim>
<dim>32</dim>
<dim>32</dim>
</port>
</output>
</layer>
<layer id="438" name="459" type="Add" version="opset1">
<input>
<port id="0">
<dim>1</dim>
<dim>64</dim>
<dim>32</dim>
<dim>32</dim>
</port>
<port id="1">
<dim>1</dim>
<dim>64</dim>
<dim>32</dim>
<dim>32</dim>
</port>
</input>
<output>
<port id="2" precision="FP16">
<dim>1</dim>
<dim>64</dim>
<dim>32</dim>
<dim>32</dim>
</port>
</output>
</layer>
<layer id="439" name="14951499_const" type="Const" version="opset1">
<data element_type="f16" offset="147713" shape="" size="2"/>
<output>
<port id="1" precision="FP16"/>
</output>
</layer>
<layer id="440" name="14961500_const" type="Const" version="opset1">
<data element_type="f16" offset="147715" shape="" size="2"/>
<output>
<port id="1" precision="FP16"/>
</output>
</layer>
<layer id="441" name="14971501_const" type="Const" version="opset1">
<data element_type="f16" offset="147713" shape="" size="2"/>
<output>
<port id="1" precision="FP16"/>
</output>
</layer>
<layer id="442" name="14981502_const" type="Const" version="opset1">
<data element_type="f16" offset="147715" shape="" size="2"/>
<output>
<port id="1" precision="FP16"/>
</output>
</layer>
<layer id="443" name="460/fq_input_0" type="FakeQuantize" version="opset1">
<data levels="256"/>
<input>
<port id="0">
<dim>1</dim>
<dim>64</dim>
<dim>32</dim>
<dim>32</dim>
</port>
<port id="1"/>
<port id="2"/>
<port id="3"/>
<port id="4"/>
</input>
<output>
<port id="5" precision="FP16">
<dim>1</dim>
<dim>64</dim>
<dim>32</dim>
<dim>32</dim>
</port>
</output>
</layer>
<layer id="444" name="460/fq_weights_1/Convert_to_float/Cast_06549_const" type="Const" version="opset1">
<data element_type="u8" offset="147717" shape="384,64,1,1" size="24576"/>
<output>
<port id="1" precision="U8">
<dim>384</dim>
<dim>64</dim>
<dim>1</dim>
<dim>1</dim>
</port>
</output>
</layer>
<layer id="445" name="460/fq_weights_1/Convert_to_float" type="Convert" version="opset1">
<data destination_type="f16"/>
<input>
<port id="0">
<dim>384</dim>
<dim>64</dim>
<dim>1</dim>
<dim>1</dim>
</port>
</input>
<output>
<port id="1" precision="FP16">
<dim>384</dim>
<dim>64</dim>
<dim>1</dim>
<dim>1</dim>
</port>
</output>
</layer>
<layer id="446" name="460/fq_weights_1/Copy/out_low5269_const" type="Const" version="opset1">
<data element_type="f16" offset="0" shape="1" size="2"/>
<output>
<port id="1" precision="FP16">
<dim>1</dim>
</port>
</output>
</layer>
<layer id="447" name="460/fq_weights_1/Copy/out_high5270_const" type="Const" version="opset1">
<data element_type="f16" offset="5" shape="1" size="2"/>
<output>
<port id="1" precision="FP16">
<dim>1</dim>
</port>
</output>
</layer>
<layer id="448" name="15071511_const" type="Const" version="opset1">
<data element_type="f16" offset="172293" shape="384,1,1,1" size="768"/>
<output>
<port id="1" precision="FP16">
<dim>384</dim>
<dim>1</dim>
<dim>1</dim>
<dim>1</dim>
</port>
</output>
</layer>
<layer id="449" name="15081512_const" type="Const" version="opset1">
<data element_type="f16" offset="173061" shape="384,1,1,1" size="768"/>
<output>
<port id="1" precision="FP16">
<dim>384</dim>
<dim>1</dim>
<dim>1</dim>
<dim>1</dim>
</port>
</output>
</layer>
<layer id="450" name="460/fq_weights_1" type="FakeQuantize" version="opset1">
<data levels="255"/>
<input>
<port id="0">
<dim>384</dim>
<dim>64</dim>
<dim>1</dim>
<dim>1</dim>
</port>
<port id="1">
<dim>1</dim>
</port>
<port id="2">
<dim>1</dim>
</port>
<port id="3">
<dim>384</dim>
<dim>1</dim>
<dim>1</dim>
<dim>1</dim>
</port>
<port id="4">
<dim>384</dim>
<dim>1</dim>
<dim>1</dim>
<dim>1</dim>
</port>
</input>
<output>
<port id="5" precision="FP16">
<dim>384</dim>
<dim>64</dim>
<dim>1</dim>
<dim>1</dim>
</port>
</output>
</layer>
<layer id="451" name="460" type="Convolution" version="opset1">
<data dilations="1,1" output_padding="0,0" pads_begin="0,0" pads_end="0,0" strides="1,1"/>
<input>
<port id="0">
<dim>1</dim>
<dim>64</dim>
<dim>32</dim>
<dim>32</dim>
</port>
<port id="1">
<dim>384</dim>
<dim>64</dim>
<dim>1</dim>
<dim>1</dim>
</port>
</input>
<output>
<port id="2" precision="FP16">
<dim>1</dim>
<dim>384</dim>
<dim>32</dim>
<dim>32</dim>
</port>
</output>
</layer>
<layer id="452" name="data_add_1170811713/copy_const532_const" type="Const" version="opset1">
<data element_type="f16" offset="173829" shape="1,384,1,1" size="768"/>
<output>
<port id="1" precision="FP16">
<dim>1</dim>
<dim>384</dim>
<dim>1</dim>
<dim>1</dim>
</port>
</output>
</layer>
<layer id="453" name="461/variance/Fused_Add_" type="Add" version="opset1">
<input>
<port id="0">
<dim>1</dim>
<dim>384</dim>
<dim>32</dim>
<dim>32</dim>
</port>
<port id="1">
<dim>1</dim>
<dim>384</dim>
<dim>1</dim>
<dim>1</dim>
</port>
</input>
<output>
<port id="2" precision="FP16">
<dim>1</dim>
<dim>384</dim>
<dim>32</dim>
<dim>32</dim>
</port>
</output>
</layer>
<layer id="454" name="462" type="ReLU" version="opset1">
<input>
<port id="0">
<dim>1</dim>
<dim>384</dim>
<dim>32</dim>
<dim>32</dim>
</port>
</input>
<output>
<port id="1" precision="FP16">
<dim>1</dim>
<dim>384</dim>
<dim>32</dim>
<dim>32</dim>
</port>
</output>
</layer>
<layer id="455" name="24552459_const" type="Const" version="opset1">
<data element_type="f16" offset="115411" shape="1,384,1,1" size="768"/>
<output>
<port id="1" precision="FP16">
<dim>1</dim>
<dim>384</dim>
<dim>1</dim>
<dim>1</dim>
</port>
</output>
</layer>
<layer id="456" name="24562460_const" type="Const" version="opset1">
<data element_type="f16" offset="174597" shape="1,384,1,1" size="768"/>
<output>
<port id="1" precision="FP16">
<dim>1</dim>
<dim>384</dim>
<dim>1</dim>
<dim>1</dim>
</port>
</output>
</layer>
<layer id="457" name="24572461_const" type="Const" version="opset1">
<data element_type="f16" offset="115411" shape="1,384,1,1" size="768"/>
<output>
<port id="1" precision="FP16">
<dim>1</dim>
<dim>384</dim>
<dim>1</dim>
<dim>1</dim>
</port>
</output>
</layer>
<layer id="458" name="24582462_const" type="Const" version="opset1">
<data element_type="f16" offset="174597" shape="1,384,1,1" size="768"/>
<output>
<port id="1" precision="FP16">
<dim>1</dim>
<dim>384</dim>
<dim>1</dim>
<dim>1</dim>
</port>
</output>
</layer>
<layer id="459" name="463/fq_input_0" type="FakeQuantize" version="opset1">
<data levels="256"/>
<input>
<port id="0">
<dim>1</dim>
<dim>384</dim>
<dim>32</dim>
<dim>32</dim>
</port>
<port id="1">
<dim>1</dim>
<dim>384</dim>
<dim>1</dim>
<dim>1</dim>
</port>
<port id="2">
<dim>1</dim>
<dim>384</dim>
<dim>1</dim>
<dim>1</dim>
</port>
<port id="3">
<dim>1</dim>
<dim>384</dim>
<dim>1</dim>
<dim>1</dim>
</port>
<port id="4">
<dim>1</dim>
<dim>384</dim>
<dim>1</dim>
<dim>1</dim>
</port>
</input>
<output>
<port id="5" precision="FP16">
<dim>1</dim>
<dim>384</dim>
<dim>32</dim>
<dim>32</dim>
</port>
</output>
</layer>
<layer id="460" name="463/fq_weights_1/Convert_to_float/Cast_06557_const" type="Const" version="opset1">
<data element_type="u8" offset="175365" shape="384,1,3,3" size="3456"/>
<output>
<port id="1" precision="U8">
<dim>384</dim>
<dim>1</dim>
<dim>3</dim>
<dim>3</dim>
</port>
</output>
</layer>
<layer id="461" name="463/fq_weights_1/Convert_to_float" type="Convert" version="opset1">
<data destination_type="f16"/>
<input>
<port id="0">
<dim>384</dim>
<dim>1</dim>
<dim>3</dim>
<dim>3</dim>
</port>
</input>
<output>
<port id="1" precision="FP16">
<dim>384</dim>
<dim>1</dim>
<dim>3</dim>
<dim>3</dim>
</port>
</output>
</layer>
<layer id="462" name="463/fq_weights_1/Copy/out_low5381_const" type="Const" version="opset1">
<data element_type="f16" offset="0" shape="1" size="2"/>
<output>
<port id="1" precision="FP16">
<dim>1</dim>
</port>
</output>
</layer>
<layer id="463" name="463/fq_weights_1/Copy/out_high5382_const" type="Const" version="opset1">
<data element_type="f16" offset="5" shape="1" size="2"/>
<output>
<port id="1" precision="FP16">
<dim>1</dim>
</port>
</output>
</layer>
<layer id="464" name="24672471_const" type="Const" version="opset1">
<data element_type="f16" offset="178821" shape="384,1,1,1" size="768"/>
<output>
<port id="1" precision="FP16">
<dim>384</dim>
<dim>1</dim>
<dim>1</dim>
<dim>1</dim>
</port>
</output>
</layer>
<layer id="465" name="24682472_const" type="Const" version="opset1">
<data element_type="f16" offset="179589" shape="384,1,1,1" size="768"/>
<output>
<port id="1" precision="FP16">
<dim>384</dim>
<dim>1</dim>
<dim>1</dim>
<dim>1</dim>
</port>
</output>
</layer>
<layer id="466" name="463/fq_weights_1" type="FakeQuantize" version="opset1">
<data levels="255"/>
<input>
<port id="0">
<dim>384</dim>
<dim>1</dim>
<dim>3</dim>
<dim>3</dim>
</port>
<port id="1">
<dim>1</dim>
</port>
<port id="2">
<dim>1</dim>
</port>
<port id="3">
<dim>384</dim>
<dim>1</dim>
<dim>1</dim>
<dim>1</dim>
</port>
<port id="4">
<dim>384</dim>
<dim>1</dim>
<dim>1</dim>
<dim>1</dim>
</port>
</input>
<output>
<port id="5" precision="FP16">
<dim>384</dim>
<dim>1</dim>
<dim>3</dim>
<dim>3</dim>
</port>
</output>
</layer>
<layer id="467" name="7506/value7508_const" type="Const" version="opset1">
<data element_type="i64" offset="121939" shape="5" size="40"/>
<output>
<port id="1" precision="I64">
<dim>5</dim>
</port>
</output>
</layer>
<layer id="468" name="7506" type="Reshape" version="opset1">
<data special_zero="True"/>
<input>
<port id="0">
<dim>384</dim>
<dim>1</dim>
<dim>3</dim>
<dim>3</dim>
</port>
<port id="1">
<dim>5</dim>
</port>
</input>
<output>
<port id="2" precision="FP16">
<dim>384</dim>
<dim>1</dim>
<dim>1</dim>
<dim>3</dim>
<dim>3</dim>
</port>
</output>
</layer>
<layer id="469" name="463" type="GroupConvolution" version="opset1">
<data dilations="1,1" output_padding="0,0" pads_begin="1,1" pads_end="1,1" strides="1,1"/>
<input>
<port id="0">
<dim>1</dim>
<dim>384</dim>
<dim>32</dim>
<dim>32</dim>
</port>
<port id="1">
<dim>384</dim>
<dim>1</dim>
<dim>1</dim>
<dim>3</dim>
<dim>3</dim>
</port>
</input>
<output>
<port id="2" precision="FP16">
<dim>1</dim>
<dim>384</dim>
<dim>32</dim>
<dim>32</dim>
</port>
</output>
</layer>
<layer id="470" name="data_add_1171611721/copy_const537_const" type="Const" version="opset1">
<data element_type="f16" offset="180357" shape="1,384,1,1" size="768"/>
<output>
<port id="1" precision="FP16">
<dim>1</dim>
<dim>384</dim>
<dim>1</dim>
<dim>1</dim>
</port>
</output>
</layer>
<layer id="471" name="464/variance/Fused_Add_" type="Add" version="opset1">
<input>
<port id="0">
<dim>1</dim>
<dim>384</dim>
<dim>32</dim>
<dim>32</dim>
</port>
<port id="1">
<dim>1</dim>
<dim>384</dim>
<dim>1</dim>
<dim>1</dim>
</port>
</input>
<output>
<port id="2" precision="FP16">
<dim>1</dim>
<dim>384</dim>
<dim>32</dim>
<dim>32</dim>
</port>
</output>
</layer>
<layer id="472" name="465" type="ReLU" version="opset1">
<input>
<port id="0">
<dim>1</dim>
<dim>384</dim>
<dim>32</dim>
<dim>32</dim>
</port>
</input>
<output>
<port id="1" precision="FP16">
<dim>1</dim>
<dim>384</dim>
<dim>32</dim>
<dim>32</dim>
</port>
</output>
</layer>
<layer id="473" name="17551759_const" type="Const" version="opset1">
<data element_type="f16" offset="0" shape="" size="2"/>
<output>
<port id="1" precision="FP16"/>
</output>
</layer>
<layer id="474" name="17561760_const" type="Const" version="opset1">
<data element_type="f16" offset="181125" shape="" size="2"/>
<output>
<port id="1" precision="FP16"/>
</output>
</layer>
<layer id="475" name="17571761_const" type="Const" version="opset1">
<data element_type="f16" offset="0" shape="" size="2"/>
<output>
<port id="1" precision="FP16"/>
</output>
</layer>
<layer id="476" name="17581762_const" type="Const" version="opset1">
<data element_type="f16" offset="181125" shape="" size="2"/>
<output>
<port id="1" precision="FP16"/>
</output>
</layer>
<layer id="477" name="466/fq_input_0" type="FakeQuantize" version="opset1">
<data levels="256"/>
<input>
<port id="0">
<dim>1</dim>
<dim>384</dim>
<dim>32</dim>
<dim>32</dim>
</port>
<port id="1"/>
<port id="2"/>
<port id="3"/>
<port id="4"/>
</input>
<output>
<port id="5" precision="FP16">
<dim>1</dim>
<dim>384</dim>
<dim>32</dim>
<dim>32</dim>
</port>
</output>
</layer>
<layer id="478" name="466/fq_weights_1/Convert_to_float/Cast_06687_const" type="Const" version="opset1">
<data element_type="u8" offset="181127" shape="64,384,1,1" size="24576"/>
<output>
<port id="1" precision="U8">
<dim>64</dim>
<dim>384</dim>
<dim>1</dim>
<dim>1</dim>
</port>
</output>
</layer>
<layer id="479" name="466/fq_weights_1/Convert_to_float" type="Convert" version="opset1">
<data destination_type="f16"/>
<input>
<port id="0">
<dim>64</dim>
<dim>384</dim>
<dim>1</dim>
<dim>1</dim>
</port>
</input>
<output>
<port id="1" precision="FP16">
<dim>64</dim>
<dim>384</dim>
<dim>1</dim>
<dim>1</dim>
</port>
</output>
</layer>
<layer id="480" name="466/fq_weights_1/Copy/out_low5717_const" type="Const" version="opset1">
<data element_type="f16" offset="0" shape="1" size="2"/>
<output>
<port id="1" precision="FP16">
<dim>1</dim>
</port>
</output>
</layer>
<layer id="481" name="466/fq_weights_1/Copy/out_high5718_const" type="Const" version="opset1">
<data element_type="f16" offset="5" shape="1" size="2"/>
<output>
<port id="1" precision="FP16">
<dim>1</dim>
</port>
</output>
</layer>
<layer id="482" name="17671771_const" type="Const" version="opset1">
<data element_type="f16" offset="205703" shape="64,1,1,1" size="128"/>
<output>
<port id="1" precision="FP16">
<dim>64</dim>
<dim>1</dim>
<dim>1</dim>
<dim>1</dim>
</port>
</output>
</layer>
<layer id="483" name="17681772_const" type="Const" version="opset1">
<data element_type="f16" offset="205831" shape="64,1,1,1" size="128"/>
<output>
<port id="1" precision="FP16">
<dim>64</dim>
<dim>1</dim>
<dim>1</dim>
<dim>1</dim>
</port>
</output>
</layer>
<layer id="484" name="466/fq_weights_1" type="FakeQuantize" version="opset1">
<data levels="255"/>
<input>
<port id="0">
<dim>64</dim>
<dim>384</dim>
<dim>1</dim>
<dim>1</dim>
</port>
<port id="1">
<dim>1</dim>
</port>
<port id="2">
<dim>1</dim>
</port>
<port id="3">
<dim>64</dim>
<dim>1</dim>
<dim>1</dim>
<dim>1</dim>
</port>
<port id="4">
<dim>64</dim>
<dim>1</dim>
<dim>1</dim>
<dim>1</dim>
</port>
</input>
<output>
<port id="5" precision="FP16">
<dim>64</dim>
<dim>384</dim>
<dim>1</dim>
<dim>1</dim>
</port>
</output>
</layer>
<layer id="485" name="466" type="Convolution" version="opset1">
<data dilations="1,1" output_padding="0,0" pads_begin="0,0" pads_end="0,0" strides="1,1"/>
<input>
<port id="0">
<dim>1</dim>
<dim>384</dim>
<dim>32</dim>
<dim>32</dim>
</port>
<port id="1">
<dim>64</dim>
<dim>384</dim>
<dim>1</dim>
<dim>1</dim>
</port>
</input>
<output>
<port id="2" precision="FP16">
<dim>1</dim>
<dim>64</dim>
<dim>32</dim>
<dim>32</dim>
</port>
</output>
</layer>
<layer id="486" name="data_add_1172411729/copy_const542_const" type="Const" version="opset1">
<data element_type="f16" offset="205959" shape="1,64,1,1" size="128"/>
<output>
<port id="1" precision="FP16">
<dim>1</dim>
<dim>64</dim>
<dim>1</dim>
<dim>1</dim>
</port>
</output>
</layer>
<layer id="487" name="467/variance/Fused_Add_" type="Add" version="opset1">
<input>
<port id="0">
<dim>1</dim>
<dim>64</dim>
<dim>32</dim>
<dim>32</dim>
</port>
<port id="1">
<dim>1</dim>
<dim>64</dim>
<dim>1</dim>
<dim>1</dim>
</port>
</input>
<output>
<port id="2" precision="FP16">
<dim>1</dim>
<dim>64</dim>
<dim>32</dim>
<dim>32</dim>
</port>
</output>
</layer>
<layer id="488" name="13851389_const" type="Const" version="opset1">
<data element_type="f16" offset="206087" shape="" size="2"/>
<output>
<port id="1" precision="FP16"/>
</output>
</layer>
<layer id="489" name="13861390_const" type="Const" version="opset1">
<data element_type="f16" offset="206089" shape="" size="2"/>
<output>
<port id="1" precision="FP16"/>
</output>
</layer>
<layer id="490" name="13871391_const" type="Const" version="opset1">
<data element_type="f16" offset="206087" shape="" size="2"/>
<output>
<port id="1" precision="FP16"/>
</output>
</layer>
<layer id="491" name="13881392_const" type="Const" version="opset1">
<data element_type="f16" offset="206089" shape="" size="2"/>
<output>
<port id="1" precision="FP16"/>
</output>
</layer>
<layer id="492" name="468/fq_input_1" type="FakeQuantize" version="opset1">
<data levels="256"/>
<input>
<port id="0">
<dim>1</dim>
<dim>64</dim>
<dim>32</dim>
<dim>32</dim>
</port>
<port id="1"/>
<port id="2"/>
<port id="3"/>
<port id="4"/>
</input>
<output>
<port id="5" precision="FP16">
<dim>1</dim>
<dim>64</dim>
<dim>32</dim>
<dim>32</dim>
</port>
</output>
</layer>
<layer id="493" name="468" type="Add" version="opset1">
<input>
<port id="0">
<dim>1</dim>
<dim>64</dim>
<dim>32</dim>
<dim>32</dim>
</port>
<port id="1">
<dim>1</dim>
<dim>64</dim>
<dim>32</dim>
<dim>32</dim>
</port>
</input>
<output>
<port id="2" precision="FP16">
<dim>1</dim>
<dim>64</dim>
<dim>32</dim>
<dim>32</dim>
</port>
</output>
</layer>
<layer id="494" name="22752279_const" type="Const" version="opset1">
<data element_type="f16" offset="206091" shape="" size="2"/>
<output>
<port id="1" precision="FP16"/>
</output>
</layer>
<layer id="495" name="22762280_const" type="Const" version="opset1">
<data element_type="f16" offset="206093" shape="" size="2"/>
<output>
<port id="1" precision="FP16"/>
</output>
</layer>
<layer id="496" name="22772281_const" type="Const" version="opset1">
<data element_type="f16" offset="206091" shape="" size="2"/>
<output>
<port id="1" precision="FP16"/>
</output>
</layer>
<layer id="497" name="22782282_const" type="Const" version="opset1">
<data element_type="f16" offset="206093" shape="" size="2"/>
<output>
<port id="1" precision="FP16"/>
</output>
</layer>
<layer id="498" name="469/fq_input_0" type="FakeQuantize" version="opset1">
<data levels="256"/>
<input>
<port id="0">
<dim>1</dim>
<dim>64</dim>
<dim>32</dim>
<dim>32</dim>
</port>
<port id="1"/>
<port id="2"/>
<port id="3"/>
<port id="4"/>
</input>
<output>
<port id="5" precision="FP16">
<dim>1</dim>
<dim>64</dim>
<dim>32</dim>
<dim>32</dim>
</port>
</output>
</layer>
<layer id="499" name="469/fq_weights_1/Convert_to_float/Cast_06571_const" type="Const" version="opset1">
<data element_type="u8" offset="206095" shape="384,64,1,1" size="24576"/>
<output>
<port id="1" precision="U8">
<dim>384</dim>
<dim>64</dim>
<dim>1</dim>
<dim>1</dim>
</port>
</output>
</layer>
<layer id="500" name="469/fq_weights_1/Convert_to_float" type="Convert" version="opset1">
<data destination_type="f16"/>
<input>
<port id="0">
<dim>384</dim>
<dim>64</dim>
<dim>1</dim>
<dim>1</dim>
</port>
</input>
<output>
<port id="1" precision="FP16">
<dim>384</dim>
<dim>64</dim>
<dim>1</dim>
<dim>1</dim>
</port>
</output>
</layer>
<layer id="501" name="469/fq_weights_1/Copy/out_low5541_const" type="Const" version="opset1">
<data element_type="f16" offset="0" shape="1" size="2"/>
<output>
<port id="1" precision="FP16">
<dim>1</dim>
</port>
</output>
</layer>
<layer id="502" name="469/fq_weights_1/Copy/out_high5542_const" type="Const" version="opset1">
<data element_type="f16" offset="5" shape="1" size="2"/>
<output>
<port id="1" precision="FP16">
<dim>1</dim>
</port>
</output>
</layer>
<layer id="503" name="22872291_const" type="Const" version="opset1">
<data element_type="f16" offset="230671" shape="384,1,1,1" size="768"/>
<output>
<port id="1" precision="FP16">
<dim>384</dim>
<dim>1</dim>
<dim>1</dim>
<dim>1</dim>
</port>
</output>
</layer>
<layer id="504" name="22882292_const" type="Const" version="opset1">
<data element_type="f16" offset="231439" shape="384,1,1,1" size="768"/>
<output>
<port id="1" precision="FP16">
<dim>384</dim>
<dim>1</dim>
<dim>1</dim>
<dim>1</dim>
</port>
</output>
</layer>
<layer id="505" name="469/fq_weights_1" type="FakeQuantize" version="opset1">
<data levels="255"/>
<input>
<port id="0">
<dim>384</dim>
<dim>64</dim>
<dim>1</dim>
<dim>1</dim>
</port>
<port id="1">
<dim>1</dim>
</port>
<port id="2">
<dim>1</dim>
</port>
<port id="3">
<dim>384</dim>
<dim>1</dim>
<dim>1</dim>
<dim>1</dim>
</port>
…
<edge from-layer="583" from-port="1" to-layer="587" to-port="1"/>
<edge from-layer="584" from-port="1" to-layer="587" to-port="2"/>
<edge from-layer="585" from-port="1" to-layer="587" to-port="3"/>
<edge from-layer="586" from-port="1" to-layer="587" to-port="4"/>
<edge from-layer="588" from-port="1" to-layer="589" to-port="0"/>
<edge from-layer="589" from-port="1" to-layer="594" to-port="0"/>
<edge from-layer="590" from-port="1" to-layer="594" to-port="1"/>
<edge from-layer="591" from-port="1" to-layer="594" to-port="2"/>
<edge from-layer="592" from-port="1" to-layer="594" to-port="3"/>
<edge from-layer="593" from-port="1" to-layer="594" to-port="4"/>
<edge from-layer="587" from-port="5" to-layer="595" to-port="0"/>
<edge from-layer="594" from-port="5" to-layer="595" to-port="1"/>
<edge from-layer="595" from-port="2" to-layer="597" to-port="0"/>
<edge from-layer="596" from-port="1" to-layer="597" to-port="1"/>
<edge from-layer="597" from-port="2" to-layer="602" to-port="0"/>
<edge from-layer="598" from-port="1" to-layer="602" to-port="1"/>
<edge from-layer="599" from-port="1" to-layer="602" to-port="2"/>
<edge from-layer="600" from-port="1" to-layer="602" to-port="3"/>
<edge from-layer="601" from-port="1" to-layer="602" to-port="4"/>
<edge from-layer="603" from-port="1" to-layer="604" to-port="0"/>
<edge from-layer="604" from-port="1" to-layer="609" to-port="0"/>
<edge from-layer="605" from-port="1" to-layer="609" to-port="1"/>
<edge from-layer="606" from-port="1" to-layer="609" to-port="2"/>
<edge from-layer="607" from-port="1" to-layer="609" to-port="3"/>
<edge from-layer="608" from-port="1" to-layer="609" to-port="4"/>
<edge from-layer="602" from-port="5" to-layer="610" to-port="0"/>
<edge from-layer="609" from-port="5" to-layer="610" to-port="1"/>
<edge from-layer="610" from-port="2" to-layer="612" to-port="0"/>
<edge from-layer="611" from-port="1" to-layer="612" to-port="1"/>
<edge from-layer="612" from-port="2" to-layer="613" to-port="0"/>
<edge from-layer="613" from-port="1" to-layer="618" to-port="0"/>
<edge from-layer="614" from-port="1" to-layer="618" to-port="1"/>
<edge from-layer="615" from-port="1" to-layer="618" to-port="2"/>
<edge from-layer="616" from-port="1" to-layer="618" to-port="3"/>
<edge from-layer="617" from-port="1" to-layer="618" to-port="4"/>
<edge from-layer="619" from-port="1" to-layer="620" to-port="0"/>
<edge from-layer="620" from-port="1" to-layer="625" to-port="0"/>
<edge from-layer="621" from-port="1" to-layer="625" to-port="1"/>
<edge from-layer="622" from-port="1" to-layer="625" to-port="2"/>
<edge from-layer="623" from-port="1" to-layer="625" to-port="3"/>
<edge from-layer="624" from-port="1" to-layer="625" to-port="4"/>
<edge from-layer="625" from-port="5" to-layer="627" to-port="0"/>
<edge from-layer="626" from-port="1" to-layer="627" to-port="1"/>
<edge from-layer="618" from-port="5" to-layer="628" to-port="0"/>
<edge from-layer="627" from-port="2" to-layer="628" to-port="1"/>
<edge from-layer="628" from-port="2" to-layer="630" to-port="0"/>
<edge from-layer="629" from-port="1" to-layer="630" to-port="1"/>
<edge from-layer="630" from-port="2" to-layer="631" to-port="0"/>
<edge from-layer="631" from-port="1" to-layer="636" to-port="0"/>
<edge from-layer="632" from-port="1" to-layer="636" to-port="1"/>
<edge from-layer="633" from-port="1" to-layer="636" to-port="2"/>
<edge from-layer="634" from-port="1" to-layer="636" to-port="3"/>
<edge from-layer="635" from-port="1" to-layer="636" to-port="4"/>
<edge from-layer="637" from-port="1" to-layer="638" to-port="0"/>
<edge from-layer="638" from-port="1" to-layer="643" to-port="0"/>
<edge from-layer="639" from-port="1" to-layer="643" to-port="1"/>
<edge from-layer="640" from-port="1" to-layer="643" to-port="2"/>
<edge from-layer="641" from-port="1" to-layer="643" to-port="3"/>
<edge from-layer="642" from-port="1" to-layer="643" to-port="4"/>
<edge from-layer="636" from-port="5" to-layer="644" to-port="0"/>
<edge from-layer="643" from-port="5" to-layer="644" to-port="1"/>
<edge from-layer="644" from-port="2" to-layer="646" to-port="0"/>
<edge from-layer="645" from-port="1" to-layer="646" to-port="1"/>
<edge from-layer="646" from-port="2" to-layer="651" to-port="0"/>
<edge from-layer="647" from-port="1" to-layer="651" to-port="1"/>
<edge from-layer="648" from-port="1" to-layer="651" to-port="2"/>
<edge from-layer="649" from-port="1" to-layer="651" to-port="3"/>
<edge from-layer="650" from-port="1" to-layer="651" to-port="4"/>
<edge from-layer="602" from-port="5" to-layer="652" to-port="0"/>
<edge from-layer="651" from-port="5" to-layer="652" to-port="1"/>
<edge from-layer="652" from-port="2" to-layer="657" to-port="0"/>
<edge from-layer="653" from-port="1" to-layer="657" to-port="1"/>
<edge from-layer="654" from-port="1" to-layer="657" to-port="2"/>
<edge from-layer="655" from-port="1" to-layer="657" to-port="3"/>
<edge from-layer="656" from-port="1" to-layer="657" to-port="4"/>
<edge from-layer="658" from-port="1" to-layer="659" to-port="0"/>
<edge from-layer="659" from-port="1" to-layer="664" to-port="0"/>
<edge from-layer="660" from-port="1" to-layer="664" to-port="1"/>
<edge from-layer="661" from-port="1" to-layer="664" to-port="2"/>
<edge from-layer="662" from-port="1" to-layer="664" to-port="3"/>
<edge from-layer="663" from-port="1" to-layer="664" to-port="4"/>
<edge from-layer="657" from-port="5" to-layer="665" to-port="0"/>
<edge from-layer="664" from-port="5" to-layer="665" to-port="1"/>
<edge from-layer="665" from-port="2" to-layer="667" to-port="0"/>
<edge from-layer="666" from-port="1" to-layer="667" to-port="1"/>
<edge from-layer="667" from-port="2" to-layer="668" to-port="0"/>
<edge from-layer="668" from-port="1" to-layer="673" to-port="0"/>
<edge from-layer="669" from-port="1" to-layer="673" to-port="1"/>
<edge from-layer="670" from-port="1" to-layer="673" to-port="2"/>
<edge from-layer="671" from-port="1" to-layer="673" to-port="3"/>
<edge from-layer="672" from-port="1" to-layer="673" to-port="4"/>
<edge from-layer="674" from-port="1" to-layer="675" to-port="0"/>
<edge from-layer="675" from-port="1" to-layer="680" to-port="0"/>
<edge from-layer="676" from-port="1" to-layer="680" to-port="1"/>
<edge from-layer="677" from-port="1" to-layer="680" to-port="2"/>
<edge from-layer="678" from-port="1" to-layer="680" to-port="3"/>
<edge from-layer="679" from-port="1" to-layer="680" to-port="4"/>
<edge from-layer="680" from-port="5" to-layer="682" to-port="0"/>
<edge from-layer="681" from-port="1" to-layer="682" to-port="1"/>
<edge from-layer="673" from-port="5" to-layer="683" to-port="0"/>
<edge from-layer="682" from-port="2" to-layer="683" to-port="1"/>
<edge from-layer="683" from-port="2" to-layer="685" to-port="0"/>
<edge from-layer="684" from-port="1" to-layer="685" to-port="1"/>
<edge from-layer="685" from-port="2" to-layer="686" to-port="0"/>
<edge from-layer="686" from-port="1" to-layer="691" to-port="0"/>
<edge from-layer="687" from-port="1" to-layer="691" to-port="1"/>
<edge from-layer="688" from-port="1" to-layer="691" to-port="2"/>
<edge from-layer="689" from-port="1" to-layer="691" to-port="3"/>
<edge from-layer="690" from-port="1" to-layer="691" to-port="4"/>
<edge from-layer="692" from-port="1" to-layer="693" to-port="0"/>
<edge from-layer="693" from-port="1" to-layer="698" to-port="0"/>
<edge from-layer="694" from-port="1" to-layer="698" to-port="1"/>
<edge from-layer="695" from-port="1" to-layer="698" to-port="2"/>
<edge from-layer="696" from-port="1" to-layer="698" to-port="3"/>
<edge from-layer="697" from-port="1" to-layer="698" to-port="4"/>
<edge from-layer="691" from-port="5" to-layer="699" to-port="0"/>
<edge from-layer="698" from-port="5" to-layer="699" to-port="1"/>
<edge from-layer="699" from-port="2" to-layer="701" to-port="0"/>
<edge from-layer="700" from-port="1" to-layer="701" to-port="1"/>
<edge from-layer="701" from-port="2" to-layer="706" to-port="0"/>
<edge from-layer="702" from-port="1" to-layer="706" to-port="1"/>
<edge from-layer="703" from-port="1" to-layer="706" to-port="2"/>
<edge from-layer="704" from-port="1" to-layer="706" to-port="3"/>
<edge from-layer="705" from-port="1" to-layer="706" to-port="4"/>
<edge from-layer="657" from-port="5" to-layer="707" to-port="0"/>
<edge from-layer="706" from-port="5" to-layer="707" to-port="1"/>
<edge from-layer="707" from-port="2" to-layer="712" to-port="0"/>
<edge from-layer="708" from-port="1" to-layer="712" to-port="1"/>
<edge from-layer="709" from-port="1" to-layer="712" to-port="2"/>
<edge from-layer="710" from-port="1" to-layer="712" to-port="3"/>
<edge from-layer="711" from-port="1" to-layer="712" to-port="4"/>
<edge from-layer="713" from-port="1" to-layer="714" to-port="0"/>
<edge from-layer="714" from-port="1" to-layer="719" to-port="0"/>
<edge from-layer="715" from-port="1" to-layer="719" to-port="1"/>
<edge from-layer="716" from-port="1" to-layer="719" to-port="2"/>
<edge from-layer="717" from-port="1" to-layer="719" to-port="3"/>
<edge from-layer="718" from-port="1" to-layer="719" to-port="4"/>
<edge from-layer="712" from-port="5" to-layer="720" to-port="0"/>
<edge from-layer="719" from-port="5" to-layer="720" to-port="1"/>
<edge from-layer="720" from-port="2" to-layer="722" to-port="0"/>
<edge from-layer="721" from-port="1" to-layer="722" to-port="1"/>
<edge from-layer="722" from-port="2" to-layer="723" to-port="0"/>
<edge from-layer="723" from-port="1" to-layer="728" to-port="0"/>
<edge from-layer="724" from-port="1" to-layer="728" to-port="1"/>
<edge from-layer="725" from-port="1" to-layer="728" to-port="2"/>
<edge from-layer="726" from-port="1" to-layer="728" to-port="3"/>
<edge from-layer="727" from-port="1" to-layer="728" to-port="4"/>
<edge from-layer="729" from-port="1" to-layer="730" to-port="0"/>
<edge from-layer="730" from-port="1" to-layer="735" to-port="0"/>
<edge from-layer="731" from-port="1" to-layer="735" to-port="1"/>
<edge from-layer="732" from-port="1" to-layer="735" to-port="2"/>
<edge from-layer="733" from-port="1" to-layer="735" to-port="3"/>
<edge from-layer="734" from-port="1" to-layer="735" to-port="4"/>
<edge from-layer="735" from-port="5" to-layer="737" to-port="0"/>
<edge from-layer="736" from-port="1" to-layer="737" to-port="1"/>
<edge from-layer="728" from-port="5" to-layer="738" to-port="0"/>
<edge from-layer="737" from-port="2" to-layer="738" to-port="1"/>
<edge from-layer="738" from-port="2" to-layer="740" to-port="0"/>
<edge from-layer="739" from-port="1" to-layer="740" to-port="1"/>
<edge from-layer="740" from-port="2" to-layer="741" to-port="0"/>
<edge from-layer="741" from-port="1" to-layer="746" to-port="0"/>
<edge from-layer="742" from-port="1" to-layer="746" to-port="1"/>
<edge from-layer="743" from-port="1" to-layer="746" to-port="2"/>
<edge from-layer="744" from-port="1" to-layer="746" to-port="3"/>
<edge from-layer="745" from-port="1" to-layer="746" to-port="4"/>
<edge from-layer="747" from-port="1" to-layer="748" to-port="0"/>
<edge from-layer="748" from-port="1" to-layer="753" to-port="0"/>
<edge from-layer="749" from-port="1" to-layer="753" to-port="1"/>
<edge from-layer="750" from-port="1" to-layer="753" to-port="2"/>
<edge from-layer="751" from-port="1" to-layer="753" to-port="3"/>
<edge from-layer="752" from-port="1" to-layer="753" to-port="4"/>
<edge from-layer="746" from-port="5" to-layer="754" to-port="0"/>
<edge from-layer="753" from-port="5" to-layer="754" to-port="1"/>
<edge from-layer="754" from-port="2" to-layer="756" to-port="0"/>
<edge from-layer="755" from-port="1" to-layer="756" to-port="1"/>
<edge from-layer="756" from-port="2" to-layer="758" to-port="0"/>
<edge from-layer="757" from-port="1" to-layer="758" to-port="1"/>
<edge from-layer="758" from-port="2" to-layer="760" to-port="0"/>
<edge from-layer="759" from-port="1" to-layer="760" to-port="1"/>
<edge from-layer="761" from-port="1" to-layer="762" to-port="0"/>
<edge from-layer="762" from-port="1" to-layer="767" to-port="0"/>
<edge from-layer="763" from-port="1" to-layer="767" to-port="1"/>
<edge from-layer="764" from-port="1" to-layer="767" to-port="2"/>
<edge from-layer="765" from-port="1" to-layer="767" to-port="3"/>
<edge from-layer="766" from-port="1" to-layer="767" to-port="4"/>
<edge from-layer="767" from-port="5" to-layer="769" to-port="0"/>
<edge from-layer="768" from-port="1" to-layer="769" to-port="1"/>
<edge from-layer="728" from-port="5" to-layer="770" to-port="0"/>
<edge from-layer="769" from-port="2" to-layer="770" to-port="1"/>
<edge from-layer="770" from-port="2" to-layer="772" to-port="0"/>
<edge from-layer="771" from-port="1" to-layer="772" to-port="1"/>
<edge from-layer="772" from-port="2" to-layer="773" to-port="0"/>
<edge from-layer="773" from-port="1" to-layer="778" to-port="0"/>
<edge from-layer="774" from-port="1" to-layer="778" to-port="1"/>
<edge from-layer="775" from-port="1" to-layer="778" to-port="2"/>
<edge from-layer="776" from-port="1" to-layer="778" to-port="3"/>
<edge from-layer="777" from-port="1" to-layer="778" to-port="4"/>
<edge from-layer="779" from-port="1" to-layer="780" to-port="0"/>
<edge from-layer="780" from-port="1" to-layer="785" to-port="0"/>
<edge from-layer="781" from-port="1" to-layer="785" to-port="1"/>
<edge from-layer="782" from-port="1" to-layer="785" to-port="2"/>
<edge from-layer="783" from-port="1" to-layer="785" to-port="3"/>
<edge from-layer="784" from-port="1" to-layer="785" to-port="4"/>
<edge from-layer="778" from-port="5" to-layer="786" to-port="0"/>
<edge from-layer="785" from-port="5" to-layer="786" to-port="1"/>
<edge from-layer="786" from-port="2" to-layer="788" to-port="0"/>
<edge from-layer="787" from-port="1" to-layer="788" to-port="1"/>
<edge from-layer="788" from-port="2" to-layer="793" to-port="0"/>
<edge from-layer="789" from-port="1" to-layer="793" to-port="1"/>
<edge from-layer="790" from-port="1" to-layer="793" to-port="2"/>
<edge from-layer="791" from-port="1" to-layer="793" to-port="3"/>
<edge from-layer="792" from-port="1" to-layer="793" to-port="4"/>
<edge from-layer="794" from-port="1" to-layer="795" to-port="0"/>
<edge from-layer="795" from-port="1" to-layer="800" to-port="0"/>
<edge from-layer="796" from-port="1" to-layer="800" to-port="1"/>
<edge from-layer="797" from-port="1" to-layer="800" to-port="2"/>
<edge from-layer="798" from-port="1" to-layer="800" to-port="3"/>
<edge from-layer="799" from-port="1" to-layer="800" to-port="4"/>
<edge from-layer="793" from-port="5" to-layer="801" to-port="0"/>
<edge from-layer="800" from-port="5" to-layer="801" to-port="1"/>
<edge from-layer="801" from-port="2" to-layer="803" to-port="0"/>
<edge from-layer="802" from-port="1" to-layer="803" to-port="1"/>
<edge from-layer="803" from-port="2" to-layer="804" to-port="0"/>
<edge from-layer="804" from-port="1" to-layer="809" to-port="0"/>
<edge from-layer="805" from-port="1" to-layer="809" to-port="1"/>
<edge from-layer="806" from-port="1" to-layer="809" to-port="2"/>
<edge from-layer="807" from-port="1" to-layer="809" to-port="3"/>
<edge from-layer="808" from-port="1" to-layer="809" to-port="4"/>
<edge from-layer="810" from-port="1" to-layer="811" to-port="0"/>
<edge from-layer="811" from-port="1" to-layer="816" to-port="0"/>
<edge from-layer="812" from-port="1" to-layer="816" to-port="1"/>
<edge from-layer="813" from-port="1" to-layer="816" to-port="2"/>
<edge from-layer="814" from-port="1" to-layer="816" to-port="3"/>
<edge from-layer="815" from-port="1" to-layer="816" to-port="4"/>
<edge from-layer="816" from-port="5" to-layer="818" to-port="0"/>
<edge from-layer="817" from-port="1" to-layer="818" to-port="1"/>
<edge from-layer="809" from-port="5" to-layer="819" to-port="0"/>
<edge from-layer="818" from-port="2" to-layer="819" to-port="1"/>
<edge from-layer="819" from-port="2" to-layer="821" to-port="0"/>
<edge from-layer="820" from-port="1" to-layer="821" to-port="1"/>
<edge from-layer="821" from-port="2" to-layer="822" to-port="0"/>
<edge from-layer="822" from-port="1" to-layer="827" to-port="0"/>
<edge from-layer="823" from-port="1" to-layer="827" to-port="1"/>
<edge from-layer="824" from-port="1" to-layer="827" to-port="2"/>
<edge from-layer="825" from-port="1" to-layer="827" to-port="3"/>
<edge from-layer="826" from-port="1" to-layer="827" to-port="4"/>
<edge from-layer="828" from-port="1" to-layer="829" to-port="0"/>
<edge from-layer="829" from-port="1" to-layer="834" to-port="0"/>
<edge from-layer="830" from-port="1" to-layer="834" to-port="1"/>
<edge from-layer="831" from-port="1" to-layer="834" to-port="2"/>
<edge from-layer="832" from-port="1" to-layer="834" to-port="3"/>
<edge from-layer="833" from-port="1" to-layer="834" to-port="4"/>
<edge from-layer="827" from-port="5" to-layer="835" to-port="0"/>
<edge from-layer="834" from-port="5" to-layer="835" to-port="1"/>
<edge from-layer="835" from-port="2" to-layer="837" to-port="0"/>
<edge from-layer="836" from-port="1" to-layer="837" to-port="1"/>
<edge from-layer="837" from-port="2" to-layer="842" to-port="0"/>
<edge from-layer="838" from-port="1" to-layer="842" to-port="1"/>
<edge from-layer="839" from-port="1" to-layer="842" to-port="2"/>
<edge from-layer="840" from-port="1" to-layer="842" to-port="3"/>
<edge from-layer="841" from-port="1" to-layer="842" to-port="4"/>
<edge from-layer="793" from-port="5" to-layer="843" to-port="0"/>
<edge from-layer="842" from-port="5" to-layer="843" to-port="1"/>
<edge from-layer="843" from-port="2" to-layer="848" to-port="0"/>
<edge from-layer="844" from-port="1" to-layer="848" to-port="1"/>
<edge from-layer="845" from-port="1" to-layer="848" to-port="2"/>
<edge from-layer="846" from-port="1" to-layer="848" to-port="3"/>
<edge from-layer="847" from-port="1" to-layer="848" to-port="4"/>
<edge from-layer="849" from-port="1" to-layer="850" to-port="0"/>
<edge from-layer="850" from-port="1" to-layer="855" to-port="0"/>
<edge from-layer="851" from-port="1" to-layer="855" to-port="1"/>
<edge from-layer="852" from-port="1" to-layer="855" to-port="2"/>
<edge from-layer="853" from-port="1" to-layer="855" to-port="3"/>
<edge from-layer="854" from-port="1" to-layer="855" to-port="4"/>
<edge from-layer="848" from-port="5" to-layer="856" to-port="0"/>
<edge from-layer="855" from-port="5" to-layer="856" to-port="1"/>
<edge from-layer="856" from-port="2" to-layer="858" to-port="0"/>
<edge from-layer="857" from-port="1" to-layer="858" to-port="1"/>
<edge from-layer="858" from-port="2" to-layer="859" to-port="0"/>
<edge from-layer="859" from-port="1" to-layer="864" to-port="0"/>
<edge from-layer="860" from-port="1" to-layer="864" to-port="1"/>
<edge from-layer="861" from-port="1" to-layer="864" to-port="2"/>
<edge from-layer="862" from-port="1" to-layer="864" to-port="3"/>
<edge from-layer="863" from-port="1" to-layer="864" to-port="4"/>
<edge from-layer="865" from-port="1" to-layer="866" to-port="0"/>
<edge from-layer="866" from-port="1" to-layer="871" to-port="0"/>
<edge from-layer="867" from-port="1" to-layer="871" to-port="1"/>
<edge from-layer="868" from-port="1" to-layer="871" to-port="2"/>
<edge from-layer="869" from-port="1" to-layer="871" to-port="3"/>
<edge from-layer="870" from-port="1" to-layer="871" to-port="4"/>
<edge from-layer="871" from-port="5" to-layer="873" to-port="0"/>
<edge from-layer="872" from-port="1" to-layer="873" to-port="1"/>
<edge from-layer="864" from-port="5" to-layer="874" to-port="0"/>
<edge from-layer="873" from-port="2" to-layer="874" to-port="1"/>
<edge from-layer="874" from-port="2" to-layer="876" to-port="0"/>
<edge from-layer="875" from-port="1" to-layer="876" to-port="1"/>
<edge from-layer="876" from-port="2" to-layer="877" to-port="0"/>
<edge from-layer="877" from-port="1" to-layer="882" to-port="0"/>
<edge from-layer="878" from-port="1" to-layer="882" to-port="1"/>
<edge from-layer="879" from-port="1" to-layer="882" to-port="2"/>
<edge from-layer="880" from-port="1" to-layer="882" to-port="3"/>
<edge from-layer="881" from-port="1" to-layer="882" to-port="4"/>
<edge from-layer="883" from-port="1" to-layer="884" to-port="0"/>
<edge from-layer="884" from-port="1" to-layer="889" to-port="0"/>
<edge from-layer="885" from-port="1" to-layer="889" to-port="1"/>
<edge from-layer="886" from-port="1" to-layer="889" to-port="2"/>
<edge from-layer="887" from-port="1" to-layer="889" to-port="3"/>
<edge from-layer="888" from-port="1" to-layer="889" to-port="4"/>
<edge from-layer="882" from-port="5" to-layer="890" to-port="0"/>
<edge from-layer="889" from-port="5" to-layer="890" to-port="1"/>
<edge from-layer="890" from-port="2" to-layer="892" to-port="0"/>
<edge from-layer="891" from-port="1" to-layer="892" to-port="1"/>
<edge from-layer="892" from-port="2" to-layer="897" to-port="0"/>
<edge from-layer="893" from-port="1" to-layer="897" to-port="1"/>
<edge from-layer="894" from-port="1" to-layer="897" to-port="2"/>
<edge from-layer="895" from-port="1" to-layer="897" to-port="3"/>
<edge from-layer="896" from-port="1" to-layer="897" to-port="4"/>
<edge from-layer="848" from-port="5" to-layer="898" to-port="0"/>
<edge from-layer="897" from-port="5" to-layer="898" to-port="1"/>
<edge from-layer="898" from-port="2" to-layer="903" to-port="0"/>
<edge from-layer="899" from-port="1" to-layer="903" to-port="1"/>
<edge from-layer="900" from-port="1" to-layer="903" to-port="2"/>
<edge from-layer="901" from-port="1" to-layer="903" to-port="3"/>
<edge from-layer="902" from-port="1" to-layer="903" to-port="4"/>
<edge from-layer="904" from-port="1" to-layer="905" to-port="0"/>
<edge from-layer="905" from-port="1" to-layer="910" to-port="0"/>
<edge from-layer="906" from-port="1" to-layer="910" to-port="1"/>
<edge from-layer="907" from-port="1" to-layer="910" to-port="2"/>
<edge from-layer="908" from-port="1" to-layer="910" to-port="3"/>
<edge from-layer="909" from-port="1" to-layer="910" to-port="4"/>
<edge from-layer="903" from-port="5" to-layer="911" to-port="0"/>
<edge from-layer="910" from-port="5" to-layer="911" to-port="1"/>
<edge from-layer="911" from-port="2" to-layer="913" to-port="0"/>
<edge from-layer="912" from-port="1" to-layer="913" to-port="1"/>
<edge from-layer="913" from-port="2" to-layer="914" to-port="0"/>
<edge from-layer="914" from-port="1" to-layer="919" to-port="0"/>
<edge from-layer="915" from-port="1" to-layer="919" to-port="1"/>
<edge from-layer="916" from-port="1" to-layer="919" to-port="2"/>
<edge from-layer="917" from-port="1" to-layer="919" to-port="3"/>
<edge from-layer="918" from-port="1" to-layer="919" to-port="4"/>
<edge from-layer="920" from-port="1" to-layer="921" to-port="0"/>
<edge from-layer="921" from-port="1" to-layer="926" to-port="0"/>
<edge from-layer="922" from-port="1" to-layer="926" to-port="1"/>
<edge from-layer="923" from-port="1" to-layer="926" to-port="2"/>
<edge from-layer="924" from-port="1" to-layer="926" to-port="3"/>
<edge from-layer="925" from-port="1" to-layer="926" to-port="4"/>
<edge from-layer="926" from-port="5" to-layer="928" to-port="0"/>
<edge from-layer="927" from-port="1" to-layer="928" to-port="1"/>
<edge from-layer="919" from-port="5" to-layer="929" to-port="0"/>
<edge from-layer="928" from-port="2" to-layer="929" to-port="1"/>
<edge from-layer="929" from-port="2" to-layer="931" to-port="0"/>
<edge from-layer="930" from-port="1" to-layer="931" to-port="1"/>
<edge from-layer="931" from-port="2" to-layer="932" to-port="0"/>
<edge from-layer="932" from-port="1" to-layer="937" to-port="0"/>
<edge from-layer="933" from-port="1" to-layer="937" to-port="1"/>
<edge from-layer="934" from-port="1" to-layer="937" to-port="2"/>
<edge from-layer="935" from-port="1" to-layer="937" to-port="3"/>
<edge from-layer="936" from-port="1" to-layer="937" to-port="4"/>
<edge from-layer="938" from-port="1" to-layer="939" to-port="0"/>
<edge from-layer="939" from-port="1" to-layer="944" to-port="0"/>
<edge from-layer="940" from-port="1" to-layer="944" to-port="1"/>
<edge from-layer="941" from-port="1" to-layer="944" to-port="2"/>
<edge from-layer="942" from-port="1" to-layer="944" to-port="3"/>
<edge from-layer="943" from-port="1" to-layer="944" to-port="4"/>
<edge from-layer="937" from-port="5" to-layer="945" to-port="0"/>
<edge from-layer="944" from-port="5" to-layer="945" to-port="1"/>
<edge from-layer="945" from-port="2" to-layer="947" to-port="0"/>
<edge from-layer="946" from-port="1" to-layer="947" to-port="1"/>
<edge from-layer="947" from-port="2" to-layer="952" to-port="0"/>
<edge from-layer="948" from-port="1" to-layer="952" to-port="1"/>
<edge from-layer="949" from-port="1" to-layer="952" to-port="2"/>
<edge from-layer="950" from-port="1" to-layer="952" to-port="3"/>
<edge from-layer="951" from-port="1" to-layer="952" to-port="4"/>
<edge from-layer="953" from-port="1" to-layer="954" to-port="0"/>
<edge from-layer="954" from-port="1" to-layer="959" to-port="0"/>
<edge from-layer="955" from-port="1" to-layer="959" to-port="1"/>
<edge from-layer="956" from-port="1" to-layer="959" to-port="2"/>
<edge from-layer="957" from-port="1" to-layer="959" to-port="3"/>
<edge from-layer="958" from-port="1" to-layer="959" to-port="4"/>
<edge from-layer="952" from-port="5" to-layer="960" to-port="0"/>
<edge from-layer="959" from-port="5" to-layer="960" to-port="1"/>
<edge from-layer="960" from-port="2" to-layer="962" to-port="0"/>
<edge from-layer="961" from-port="1" to-layer="962" to-port="1"/>
<edge from-layer="962" from-port="2" to-layer="963" to-port="0"/>
<edge from-layer="963" from-port="1" to-layer="968" to-port="0"/>
<edge from-layer="964" from-port="1" to-layer="968" to-port="1"/>
<edge from-layer="965" from-port="1" to-layer="968" to-port="2"/>
<edge from-layer="966" from-port="1" to-layer="968" to-port="3"/>
<edge from-layer="967" from-port="1" to-layer="968" to-port="4"/>
<edge from-layer="969" from-port="1" to-layer="970" to-port="0"/>
<edge from-layer="970" from-port="1" to-layer="975" to-port="0"/>
<edge from-layer="971" from-port="1" to-layer="975" to-port="1"/>
<edge from-layer="972" from-port="1" to-layer="975" to-port="2"/>
<edge from-layer="973" from-port="1" to-layer="975" to-port="3"/>
<edge from-layer="974" from-port="1" to-layer="975" to-port="4"/>
<edge from-layer="975" from-port="5" to-layer="977" to-port="0"/>
<edge from-layer="976" from-port="1" to-layer="977" to-port="1"/>
<edge from-layer="968" from-port="5" to-layer="978" to-port="0"/>
<edge from-layer="977" from-port="2" to-layer="978" to-port="1"/>
<edge from-layer="978" from-port="2" to-layer="980" to-port="0"/>
<edge from-layer="979" from-port="1" to-layer="980" to-port="1"/>
<edge from-layer="980" from-port="2" to-layer="981" to-port="0"/>
<edge from-layer="981" from-port="1" to-layer="986" to-port="0"/>
<edge from-layer="982" from-port="1" to-layer="986" to-port="1"/>
<edge from-layer="983" from-port="1" to-layer="986" to-port="2"/>
<edge from-layer="984" from-port="1" to-layer="986" to-port="3"/>
<edge from-layer="985" from-port="1" to-layer="986" to-port="4"/>
<edge from-layer="987" from-port="1" to-layer="988" to-port="0"/>
<edge from-layer="988" from-port="1" to-layer="993" to-port="0"/>
<edge from-layer="989" from-port="1" to-layer="993" to-port="1"/>
<edge from-layer="990" from-port="1" to-layer="993" to-port="2"/>
<edge from-layer="991" from-port="1" to-layer="993" to-port="3"/>
<edge from-layer="992" from-port="1" to-layer="993" to-port="4"/>
<edge from-layer="986" from-port="5" to-layer="994" to-port="0"/>
<edge from-layer="993" from-port="5" to-layer="994" to-port="1"/>
<edge from-layer="994" from-port="2" to-layer="996" to-port="0"/>
<edge from-layer="995" from-port="1" to-layer="996" to-port="1"/>
<edge from-layer="996" from-port="2" to-layer="998" to-port="0"/>
<edge from-layer="997" from-port="1" to-layer="998" to-port="1"/>
<edge from-layer="998" from-port="2" to-layer="1000" to-port="0"/>
<edge from-layer="999" from-port="1" to-layer="1000" to-port="1"/>
<edge from-layer="1001" from-port="1" to-layer="1002" to-port="0"/>
<edge from-layer="1002" from-port="1" to-layer="1007" to-port="0"/>
<edge from-layer="1003" from-port="1" to-layer="1007" to-port="1"/>
<edge from-layer="1004" from-port="1" to-layer="1007" to-port="2"/>
<edge from-layer="1005" from-port="1" to-layer="1007" to-port="3"/>
<edge from-layer="1006" from-port="1" to-layer="1007" to-port="4"/>
<edge from-layer="968" from-port="5" to-layer="1008" to-port="0"/>
<edge from-layer="1007" from-port="5" to-layer="1008" to-port="1"/>
<edge from-layer="1008" from-port="2" to-layer="1010" to-port="0"/>
<edge from-layer="1009" from-port="1" to-layer="1010" to-port="1"/>
<edge from-layer="1010" from-port="2" to-layer="1011" to-port="0"/>
<edge from-layer="1011" from-port="1" to-layer="1016" to-port="0"/>
<edge from-layer="1012" from-port="1" to-layer="1016" to-port="1"/>
<edge from-layer="1013" from-port="1" to-layer="1016" to-port="2"/>
<edge from-layer="1014" from-port="1" to-layer="1016" to-port="3"/>
<edge from-layer="1015" from-port="1" to-layer="1016" to-port="4"/>
<edge from-layer="1017" from-port="1" to-layer="1018" to-port="0"/>
<edge from-layer="1018" from-port="1" to-layer="1023" to-port="0"/>
<edge from-layer="1019" from-port="1" to-layer="1023" to-port="1"/>
<edge from-layer="1020" from-port="1" to-layer="1023" to-port="2"/>
<edge from-layer="1021" from-port="1" to-layer="1023" to-port="3"/>
<edge from-layer="1022" from-port="1" to-layer="1023" to-port="4"/>
<edge from-layer="1023" from-port="5" to-layer="1025" to-port="0"/>
<edge from-layer="1024" from-port="1" to-layer="1025" to-port="1"/>
<edge from-layer="1016" from-port="5" to-layer="1026" to-port="0"/>
<edge from-layer="1025" from-port="2" to-layer="1026" to-port="1"/>
<edge from-layer="1026" from-port="2" to-layer="1028" to-port="0"/>
<edge from-layer="1027" from-port="1" to-layer="1028" to-port="1"/>
<edge from-layer="1028" from-port="2" to-layer="1029" to-port="0"/>
<edge from-layer="1029" from-port="1" to-layer="1034" to-port="0"/>
<edge from-layer="1030" from-port="1" to-layer="1034" to-port="1"/>
<edge from-layer="1031" from-port="1" to-layer="1034" to-port="2"/>
<edge from-layer="1032" from-port="1" to-layer="1034" to-port="3"/>
<edge from-layer="1033" from-port="1" to-layer="1034" to-port="4"/>
<edge from-layer="1035" from-port="1" to-layer="1036" to-port="0"/>
<edge from-layer="1036" from-port="1" to-layer="1041" to-port="0"/>
<edge from-layer="1037" from-port="1" to-layer="1041" to-port="1"/>
<edge from-layer="1038" from-port="1" to-layer="1041" to-port="2"/>
<edge from-layer="1039" from-port="1" to-layer="1041" to-port="3"/>
<edge from-layer="1040" from-port="1" to-layer="1041" to-port="4"/>
<edge from-layer="1034" from-port="5" to-layer="1042" to-port="0"/>
<edge from-layer="1041" from-port="5" to-layer="1042" to-port="1"/>
<edge from-layer="1042" from-port="2" to-layer="1044" to-port="0"/>
<edge from-layer="1043" from-port="1" to-layer="1044" to-port="1"/>
<edge from-layer="1044" from-port="2" to-layer="1045" to-port="0"/>
<edge from-layer="1045" from-port="1" to-layer="1050" to-port="0"/>
<edge from-layer="1046" from-port="1" to-layer="1050" to-port="1"/>
<edge from-layer="1047" from-port="1" to-layer="1050" to-port="2"/>
<edge from-layer="1048" from-port="1" to-layer="1050" to-port="3"/>
<edge from-layer="1049" from-port="1" to-layer="1050" to-port="4"/>
<edge from-layer="1051" from-port="1" to-layer="1052" to-port="0"/>
<edge from-layer="1052" from-port="1" to-layer="1057" to-port="0"/>
<edge from-layer="1053" from-port="1" to-layer="1057" to-port="1"/>
<edge from-layer="1054" from-port="1" to-layer="1057" to-port="2"/>
<edge from-layer="1055" from-port="1" to-layer="1057" to-port="3"/>
<edge from-layer="1056" from-port="1" to-layer="1057" to-port="4"/>
<edge from-layer="1057" from-port="5" to-layer="1059" to-port="0"/>
<edge from-layer="1058" from-port="1" to-layer="1059" to-port="1"/>
<edge from-layer="1050" from-port="5" to-layer="1060" to-port="0"/>
<edge from-layer="1059" from-port="2" to-layer="1060" to-port="1"/>
<edge from-layer="1060" from-port="2" to-layer="1062" to-port="0"/>
<edge from-layer="1061" from-port="1" to-layer="1062" to-port="1"/>
<edge from-layer="1062" from-port="2" to-layer="1063" to-port="0"/>
<edge from-layer="1063" from-port="1" to-layer="1068" to-port="0"/>
<edge from-layer="1064" from-port="1" to-layer="1068" to-port="1"/>
<edge from-layer="1065" from-port="1" to-layer="1068" to-port="2"/>
<edge from-layer="1066" from-port="1" to-layer="1068" to-port="3"/>
<edge from-layer="1067" from-port="1" to-layer="1068" to-port="4"/>
<edge from-layer="1069" from-port="1" to-layer="1070" to-port="0"/>
<edge from-layer="1070" from-port="1" to-layer="1075" to-port="0"/>
<edge from-layer="1071" from-port="1" to-layer="1075" to-port="1"/>
<edge from-layer="1072" from-port="1" to-layer="1075" to-port="2"/>
<edge from-layer="1073" from-port="1" to-layer="1075" to-port="3"/>
<edge from-layer="1074" from-port="1" to-layer="1075" to-port="4"/>
<edge from-layer="1068" from-port="5" to-layer="1076" to-port="0"/>
<edge from-layer="1075" from-port="5" to-layer="1076" to-port="1"/>
<edge from-layer="1076" from-port="2" to-layer="1078" to-port="0"/>
<edge from-layer="1077" from-port="1" to-layer="1078" to-port="1"/>
<edge from-layer="1078" from-port="2" to-layer="1080" to-port="0"/>
<edge from-layer="1079" from-port="1" to-layer="1080" to-port="1"/>
<edge from-layer="1080" from-port="2" to-layer="1082" to-port="0"/>
<edge from-layer="1081" from-port="1" to-layer="1082" to-port="1"/>
<edge from-layer="760" from-port="2" to-layer="1083" to-port="0"/>
<edge from-layer="1000" from-port="2" to-layer="1083" to-port="1"/>
<edge from-layer="1082" from-port="2" to-layer="1083" to-port="2"/>
<edge from-layer="1084" from-port="1" to-layer="1085" to-port="0"/>
<edge from-layer="1085" from-port="1" to-layer="1090" to-port="0"/>
<edge from-layer="1086" from-port="1" to-layer="1090" to-port="1"/>
<edge from-layer="1087" from-port="1" to-layer="1090" to-port="2"/>
<edge from-layer="1088" from-port="1" to-layer="1090" to-port="3"/>
<edge from-layer="1089" from-port="1" to-layer="1090" to-port="4"/>
<edge from-layer="1090" from-port="5" to-layer="1092" to-port="0"/>
<edge from-layer="1091" from-port="1" to-layer="1092" to-port="1"/>
<edge from-layer="728" from-port="5" to-layer="1093" to-port="0"/>
<edge from-layer="1092" from-port="2" to-layer="1093" to-port="1"/>
<edge from-layer="1093" from-port="2" to-layer="1095" to-port="0"/>
<edge from-layer="1094" from-port="1" to-layer="1095" to-port="1"/>
<edge from-layer="1095" from-port="2" to-layer="1096" to-port="0"/>
<edge from-layer="1096" from-port="1" to-layer="1101" to-port="0"/>
<edge from-layer="1097" from-port="1" to-layer="1101" to-port="1"/>
<edge from-layer="1098" from-port="1" to-layer="1101" to-port="2"/>
<edge from-layer="1099" from-port="1" to-layer="1101" to-port="3"/>
<edge from-layer="1100" from-port="1" to-layer="1101" to-port="4"/>
<edge from-layer="1102" from-port="1" to-layer="1103" to-port="0"/>
<edge from-layer="1103" from-port="1" to-layer="1108" to-port="0"/>
<edge from-layer="1104" from-port="1" to-layer="1108" to-port="1"/>
<edge from-layer="1105" from-port="1" to-layer="1108" to-port="2"/>
<edge from-layer="1106" from-port="1" to-layer="1108" to-port="3"/>
<edge from-layer="1107" from-port="1" to-layer="1108" to-port="4"/>
<edge from-layer="1101" from-port="5" to-layer="1109" to-port="0"/>
<edge from-layer="1108" from-port="5" to-layer="1109" to-port="1"/>
<edge from-layer="1109" from-port="2" to-layer="1111" to-port="0"/>
<edge from-layer="1110" from-port="1" to-layer="1111" to-port="1"/>
<edge from-layer="1111" from-port="2" to-layer="1113" to-port="0"/>
<edge from-layer="1112" from-port="1" to-layer="1113" to-port="1"/>
<edge from-layer="1113" from-port="2" to-layer="1115" to-port="0"/>
<edge from-layer="1114" from-port="1" to-layer="1115" to-port="1"/>
<edge from-layer="1116" from-port="1" to-layer="1117" to-port="0"/>
<edge from-layer="1117" from-port="1" to-layer="1122" to-port="0"/>
<edge from-layer="1118" from-port="1" to-layer="1122" to-port="1"/>
<edge from-layer="1119" from-port="1" to-layer="1122" to-port="2"/>
<edge from-layer="1120" from-port="1" to-layer="1122" to-port="3"/>
<edge from-layer="1121" from-port="1" to-layer="1122" to-port="4"/>
<edge from-layer="1122" from-port="5" to-layer="1124" to-port="0"/>
<edge from-layer="1123" from-port="1" to-layer="1124" to-port="1"/>
<edge from-layer="968" from-port="5" to-layer="1125" to-port="0"/>
<edge from-layer="1124" from-port="2" to-layer="1125" to-port="1"/>
<edge from-layer="1125" from-port="2" to-layer="1127" to-port="0"/>
<edge from-layer="1126" from-port="1" to-layer="1127" to-port="1"/>
<edge from-layer="1127" from-port="2" to-layer="1128" to-port="0"/>
<edge from-layer="1128" from-port="1" to-layer="1133" to-port="0"/>
<edge from-layer="1129" from-port="1" to-layer="1133" to-port="1"/>
<edge from-layer="1130" from-port="1" to-layer="1133" to-port="2"/>
<edge from-layer="1131" from-port="1" to-layer="1133" to-port="3"/>
<edge from-layer="1132" from-port="1" to-layer="1133" to-port="4"/>
<edge from-layer="1134" from-port="1" to-layer="1135" to-port="0"/>
<edge from-layer="1135" from-port="1" to-layer="1140" to-port="0"/>
<edge from-layer="1136" from-port="1" to-layer="1140" to-port="1"/>
<edge from-layer="1137" from-port="1" to-layer="1140" to-port="2"/>
<edge from-layer="1138" from-port="1" to-layer="1140" to-port="3"/>
<edge from-layer="1139" from-port="1" to-layer="1140" to-port="4"/>
<edge from-layer="1133" from-port="5" to-layer="1141" to-port="0"/>
<edge from-layer="1140" from-port="5" to-layer="1141" to-port="1"/>
<edge from-layer="1141" from-port="2" to-layer="1143" to-port="0"/>
<edge from-layer="1142" from-port="1" to-layer="1143" to-port="1"/>
<edge from-layer="1143" from-port="2" to-layer="1145" to-port="0"/>
<edge from-layer="1144" from-port="1" to-layer="1145" to-port="1"/>
<edge from-layer="1145" from-port="2" to-layer="1147" to-port="0"/>
<edge from-layer="1146" from-port="1" to-layer="1147" to-port="1"/>
<edge from-layer="1148" from-port="1" to-layer="1149" to-port="0"/>
<edge from-layer="1149" from-port="1" to-layer="1154" to-port="0"/>
<edge from-layer="1150" from-port="1" to-layer="1154" to-port="1"/>
<edge from-layer="1151" from-port="1" to-layer="1154" to-port="2"/>
<edge from-layer="1152" from-port="1" to-layer="1154" to-port="3"/>
<edge from-layer="1153" from-port="1" to-layer="1154" to-port="4"/>
<edge from-layer="1154" from-port="5" to-layer="1156" to-port="0"/>
<edge from-layer="1155" from-port="1" to-layer="1156" to-port="1"/>
<edge from-layer="1050" from-port="5" to-layer="1157" to-port="0"/>
<edge from-layer="1156" from-port="2" to-layer="1157" to-port="1"/>
<edge from-layer="1157" from-port="2" to-layer="1159" to-port="0"/>
<edge from-layer="1158" from-port="1" to-layer="1159" to-port="1"/>
<edge from-layer="1159" from-port="2" to-layer="1160" to-port="0"/>
<edge from-layer="1160" from-port="1" to-layer="1165" to-port="0"/>
<edge from-layer="1161" from-port="1" to-layer="1165" to-port="1"/>
<edge from-layer="1162" from-port="1" to-layer="1165" to-port="2"/>
<edge from-layer="1163" from-port="1" to-layer="1165" to-port="3"/>
<edge from-layer="1164" from-port="1" to-layer="1165" to-port="4"/>
<edge from-layer="1166" from-port="1" to-layer="1167" to-port="0"/>
<edge from-layer="1167" from-port="1" to-layer="1172" to-port="0"/>
<edge from-layer="1168" from-port="1" to-layer="1172" to-port="1"/>
<edge from-layer="1169" from-port="1" to-layer="1172" to-port="2"/>
<edge from-layer="1170" from-port="1" to-layer="1172" to-port="3"/>
<edge from-layer="1171" from-port="1" to-layer="1172" to-port="4"/>
<edge from-layer="1165" from-port="5" to-layer="1173" to-port="0"/>
<edge from-layer="1172" from-port="5" to-layer="1173" to-port="1"/>
<edge from-layer="1173" from-port="2" to-layer="1175" to-port="0"/>
<edge from-layer="1174" from-port="1" to-layer="1175" to-port="1"/>
<edge from-layer="1175" from-port="2" to-layer="1177" to-port="0"/>
<edge from-layer="1176" from-port="1" to-layer="1177" to-port="1"/>
<edge from-layer="1177" from-port="2" to-layer="1179" to-port="0"/>
<edge from-layer="1178" from-port="1" to-layer="1179" to-port="1"/>
<edge from-layer="1115" from-port="2" to-layer="1180" to-port="0"/>
<edge from-layer="1147" from-port="2" to-layer="1180" to-port="1"/>
<edge from-layer="1179" from-port="2" to-layer="1180" to-port="2"/>
<edge from-layer="1180" from-port="3" to-layer="1182" to-port="0"/>
<edge from-layer="1181" from-port="1" to-layer="1182" to-port="1"/>
<edge from-layer="1182" from-port="2" to-layer="1184" to-port="0"/>
<edge from-layer="1183" from-port="1" to-layer="1184" to-port="1"/>
<edge from-layer="1184" from-port="2" to-layer="1185" to-port="0"/>
<edge from-layer="1185" from-port="1" to-layer="1187" to-port="0"/>
<edge from-layer="1186" from-port="1" to-layer="1187" to-port="1"/>
<edge from-layer="1187" from-port="2" to-layer="1189" to-port="0"/>
<edge from-layer="1188" from-port="1" to-layer="1189" to-port="1"/>
<edge from-layer="723" from-port="1" to-layer="1190" to-port="0"/>
<edge from-layer="1190" from-port="1" to-layer="1194" to-port="0"/>
<edge from-layer="1191" from-port="1" to-layer="1194" to-port="1"/>
<edge from-layer="1192" from-port="1" to-layer="1194" to-port="2"/>
<edge from-layer="1193" from-port="1" to-layer="1194" to-port="3"/>
<edge from-layer="13" from-port="2" to-layer="1195" to-port="0"/>
<edge from-layer="1195" from-port="1" to-layer="1199" to-port="0"/>
<edge from-layer="1196" from-port="1" to-layer="1199" to-port="1"/>
<edge from-layer="1197" from-port="1" to-layer="1199" to-port="2"/>
<edge from-layer="1198" from-port="1" to-layer="1199" to-port="3"/>
<edge from-layer="1194" from-port="4" to-layer="1200" to-port="0"/>
<edge from-layer="1199" from-port="4" to-layer="1200" to-port="1"/>
<edge from-layer="1200" from-port="2" to-layer="1202" to-port="0"/>
<edge from-layer="1201" from-port="1" to-layer="1202" to-port="1"/>
<edge from-layer="963" from-port="1" to-layer="1203" to-port="0"/>
<edge from-layer="1203" from-port="1" to-layer="1207" to-port="0"/>
<edge from-layer="1204" from-port="1" to-layer="1207" to-port="1"/>
<edge from-layer="1205" from-port="1" to-layer="1207" to-port="2"/>
<edge from-layer="1206" from-port="1" to-layer="1207" to-port="3"/>
<edge from-layer="13" from-port="2" to-layer="1208" to-port="0"/>
<edge from-layer="1208" from-port="1" to-layer="1212" to-port="0"/>
<edge from-layer="1209" from-port="1" to-layer="1212" to-port="1"/>
<edge from-layer="1210" from-port="1" to-layer="1212" to-port="2"/>
<edge from-layer="1211" from-port="1" to-layer="1212" to-port="3"/>
<edge from-layer="1207" from-port="4" to-layer="1213" to-port="0"/>
<edge from-layer="1212" from-port="4" to-layer="1213" to-port="1"/>
<edge from-layer="1213" from-port="2" to-layer="1215" to-port="0"/>
<edge from-layer="1214" from-port="1" to-layer="1215" to-port="1"/>
<edge from-layer="1045" from-port="1" to-layer="1216" to-port="0"/>
<edge from-layer="1216" from-port="1" to-layer="1220" to-port="0"/>
<edge from-layer="1217" from-port="1" to-layer="1220" to-port="1"/>
<edge from-layer="1218" from-port="1" to-layer="1220" to-port="2"/>
<edge from-layer="1219" from-port="1" to-layer="1220" to-port="3"/>
<edge from-layer="13" from-port="2" to-layer="1221" to-port="0"/>
<edge from-layer="1221" from-port="1" to-layer="1225" to-port="0"/>
<edge from-layer="1222" from-port="1" to-layer="1225" to-port="1"/>
<edge from-layer="1223" from-port="1" to-layer="1225" to-port="2"/>
<edge from-layer="1224" from-port="1" to-layer="1225" to-port="3"/>
<edge from-layer="1220" from-port="4" to-layer="1226" to-port="0"/>
<edge from-layer="1225" from-port="4" to-layer="1226" to-port="1"/>
<edge from-layer="1226" from-port="2" to-layer="1228" to-port="0"/>
<edge from-layer="1227" from-port="1" to-layer="1228" to-port="1"/>
<edge from-layer="1202" from-port="2" to-layer="1229" to-port="0"/>
<edge from-layer="1215" from-port="2" to-layer="1229" to-port="1"/>
<edge from-layer="1228" from-port="2" to-layer="1229" to-port="2"/>
<edge from-layer="1083" from-port="3" to-layer="1230" to-port="0"/>
<edge from-layer="1189" from-port="2" to-layer="1230" to-port="1"/>
<edge from-layer="1229" from-port="3" to-layer="1230" to-port="2"/>
<edge from-layer="1230" from-port="3" to-layer="1231" to-port="0"/>
</edges>
<meta_data>
<MO_version value="unknown version"/>
<cli_parameters>
<blobs_as_inputs value="True"/>
<caffe_parser_path value="DIR"/>
<data_type value="FP16"/>
<disable_nhwc_to_nchw value="False"/>
<disable_omitting_optional value="False"/>
<disable_resnet_optimization value="False"/>
<disable_weights_compression value="False"/>
<enable_concat_optimization value="False"/>
<enable_flattening_nested_params value="False"/>
<enable_ssd_gluoncv value="False"/>
<extensions value="DIR"/>
<framework value="onnx"/>
<freeze_placeholder_with_value value="{}"/>
<generate_deprecated_IR_V2 value="False"/>
<generate_deprecated_IR_V7 value="False"/>
<generate_experimental_IR_V10 value="True"/>
<input value="input.1"/>
<input_model value="DIR/person-vehicle-bike-detection-crossroad-1016.onnx"/>
<input_model_is_text value="False"/>
<input_shape value="[1,3,512,512]"/>
<k value="DIR/CustomLayersMapping.xml"/>
<keep_quantize_ops_in_IR value="True"/>
<keep_shape_ops value="True"/>
<legacy_mxnet_model value="False"/>
<log_level value="ERROR"/>
<mean_scale_values value="{'input.1': {'mean': None, 'scale': array([255.])}}"/>
<mean_values value="()"/>
<model_name value="person-vehicle-bike-detection-crossroad-1016"/>
<move_to_preprocess value="False"/>
<output_dir value="DIR"/>
<placeholder_data_types value="{}"/>
<placeholder_shapes value="{'input.1': array([ 1, 3, 512, 512])}"/>
<progress value="False"/>
<remove_memory value="False"/>
<remove_output_softmax value="False"/>
<reverse_input_channels value="False"/>
<save_params_from_nd value="False"/>
<scale_values value="input.1[255.0]"/>
<silent value="False"/>
<stream_output value="False"/>
<unset unset_cli_parameters="batch, counts, disable_fusing, disable_gfusing, finegrain_fusing, input_checkpoint, input_meta_graph, input_proto, input_symbol, mean_file, mean_file_offsets, nd_prefix_name, output, pretrained_model_name, saved_model_dir, saved_model_tags, scale, tensorboard_logdir, tensorflow_custom_layer_libraries, tensorflow_custom_operations_config_update, tensorflow_object_detection_api_pipeline_config, tensorflow_use_custom_operations_config, transformations_config"/>
</cli_parameters>
</meta_data>
<quantization_parameters>
<config>{ 'compression': { 'algorithms': [ { 'name': 'DefaultQuantization', 'params': { 'preset': 'performance', 'stat_subset_size': 300 } } ], 'target_device': 'CPU' }, 'engine': { 'models': [ { 'name': 'person-vehicle-bike-detection-crossroad-1016', 'launchers': [ { 'framework': 'dlsdk', 'tags': [ 'FP32' ], 'model': 'PATH', 'weights': 'PATH', 'adapter': 'ssd', 'device': 'CPU' } ], 'datasets': [ { 'name': 'crossroad_dataset_1016', 'data_source': 'PATH', 'annotation_conversion': { 'converter': 'crossroad', 'annotation_file': 'PATH', 'labels': 'background,vehicle,person,non-vehicle' }, 'annotation': 'crossorad.pickle', 'dataset_meta': 'crossroad.json', 'preprocessing': [ { 'type': 'resize', 'dst_width': 512, 'dst_height': 512 } ], 'postprocessing': [ { 'type': 'resize_prediction_boxes' }, { 'type': 'cast_to_int' }, { 'type': 'filter', 'apply_to': 'annotation', 'area_ratio': 0.034722222222222224 }, { 'type': 'filter', 'apply_to': 'prediction', 'min_confidence': 0.05, 'is_empty': true } ], 'metrics': [ { 'type': 'map', 'presenter': 'print_vector', 'ignore_difficult': true, 'include_boundaries': true, 'allow_multiple_matches_per_ignored': true, 'use_filtered_tp': false } ] } ] }, { 'name': 'person-vehicle-bike-detection-crossroad-1016', 'launchers': [ { 'framework': 'dlsdk', 'tags': [ 'FP16' ], 'model': 'PATH', 'weights': 'PATH', 'adapter': 'ssd', 'device': 'CPU' } ], 'datasets': [ { 'name': 'crossroad_dataset_1016', 'data_source': 'PATH', 'annotation_conversion': { 'converter': 'crossroad', 'annotation_file': 'PATH', 'labels': 'background,vehicle,person,non-vehicle' }, 'annotation': 'crossorad.pickle', 'dataset_meta': 'crossroad.json', 'preprocessing': [ { 'type': 'resize', 'dst_width': 512, 'dst_height': 512 } ], 'postprocessing': [ { 'type': 'resize_prediction_boxes' }, { 'type': 'cast_to_int' }, { 'type': 'filter', 'apply_to': 'annotation', 'area_ratio': 0.034722222222222224 }, { 'type': 'filter', 'apply_to': 'prediction', 'min_confidence': 0.05, 'is_empty': true } ], 'metrics': [ { 'type': 'map', 'presenter': 'print_vector', 'ignore_difficult': true, 'include_boundaries': true, 'allow_multiple_matches_per_ignored': true, 'use_filtered_tp': false } ] } ] }, { 'name': 'person-vehicle-bike-detection-crossroad-1016', 'launchers': [ { 'framework': 'dlsdk', 'tags': [ 'FP16-INT8' ], 'model': 'PATH', 'weights': 'PATH', 'adapter': 'ssd', 'device': 'CPU' } ], 'datasets': [ { 'name': 'crossroad_dataset_1016', 'data_source': 'PATH', 'annotation_conversion': { 'converter': 'crossroad', 'annotation_file': 'PATH', 'labels': 'background,vehicle,person,non-vehicle' }, 'annotation': 'crossorad.pickle', 'dataset_meta': 'crossroad.json', 'preprocessing': [ { 'type': 'resize', 'dst_width': 512, 'dst_height': 512 } ], 'postprocessing': [ { 'type': 'resize_prediction_boxes' }, { 'type': 'cast_to_int' }, { 'type': 'filter', 'apply_to': 'annotation', 'area_ratio': 0.034722222222222224 }, { 'type': 'filter', 'apply_to': 'prediction', 'min_confidence': 0.05, 'is_empty': true } ], 'metrics': [ { 'type': 'map', 'presenter': 'print_vector', 'ignore_difficult': true, 'include_boundaries': true, 'allow_multiple_matches_per_ignored': true, 'use_filtered_tp': false } ] } ] } ], 'global_definitions': '../dataset_definitions.yml', 'stat_requests_number': null, 'eval_requests_number': null, 'type': 'accuracy_checker' } }</config>
<version value="1.0"/>
<cli_params value="{'evaluate': False, 'output_dir': 'PATH', 'direct_dump': True, 'log_level': 'INFO', 'pbar': False, 'keep_uncompressed_weights': False}"/>
</quantization_parameters>
</net>